saved_model_schema_version: 1
meta_graphs {
  meta_info_def {
    stripped_op_list {
      op {
        name: "Add"
        input_arg {
          name: "x"
          type_attr: "T"
        }
        input_arg {
          name: "y"
          type_attr: "T"
        }
        output_arg {
          name: "z"
          type_attr: "T"
        }
        attr {
          name: "T"
          type: "type"
          allowed_values {
            list {
              type: DT_BFLOAT16
              type: DT_HALF
              type: DT_FLOAT
              type: DT_DOUBLE
              type: DT_UINT8
              type: DT_INT8
              type: DT_INT16
              type: DT_INT32
              type: DT_INT64
              type: DT_COMPLEX64
              type: DT_COMPLEX128
              type: DT_STRING
            }
          }
        }
      }
      op {
        name: "AddN"
        input_arg {
          name: "inputs"
          type_attr: "T"
          number_attr: "N"
        }
        output_arg {
          name: "sum"
          type_attr: "T"
        }
        attr {
          name: "N"
          type: "int"
          has_minimum: true
          minimum: 1
        }
        attr {
          name: "T"
          type: "type"
          allowed_values {
            list {
              type: DT_FLOAT
              type: DT_DOUBLE
              type: DT_INT32
              type: DT_UINT8
              type: DT_INT16
              type: DT_INT8
              type: DT_COMPLEX64
              type: DT_INT64
              type: DT_QINT8
              type: DT_QUINT8
              type: DT_QINT32
              type: DT_BFLOAT16
              type: DT_UINT16
              type: DT_COMPLEX128
              type: DT_HALF
              type: DT_UINT32
              type: DT_UINT64
              type: DT_VARIANT
            }
          }
        }
        is_aggregate: true
        is_commutative: true
      }
      op {
        name: "ArgMax"
        input_arg {
          name: "input"
          type_attr: "T"
        }
        input_arg {
          name: "dimension"
          type_attr: "Tidx"
        }
        output_arg {
          name: "output"
          type_attr: "output_type"
        }
        attr {
          name: "T"
          type: "type"
          allowed_values {
            list {
              type: DT_FLOAT
              type: DT_DOUBLE
              type: DT_INT32
              type: DT_UINT8
              type: DT_INT16
              type: DT_INT8
              type: DT_COMPLEX64
              type: DT_INT64
              type: DT_QINT8
              type: DT_QUINT8
              type: DT_QINT32
              type: DT_BFLOAT16
              type: DT_UINT16
              type: DT_COMPLEX128
              type: DT_HALF
              type: DT_UINT32
              type: DT_UINT64
            }
          }
        }
        attr {
          name: "Tidx"
          type: "type"
          default_value {
            type: DT_INT32
          }
          allowed_values {
            list {
              type: DT_INT32
              type: DT_INT64
            }
          }
        }
        attr {
          name: "output_type"
          type: "type"
          default_value {
            type: DT_INT64
          }
          allowed_values {
            list {
              type: DT_INT32
              type: DT_INT64
            }
          }
        }
      }
      op {
        name: "Assign"
        input_arg {
          name: "ref"
          type_attr: "T"
          is_ref: true
        }
        input_arg {
          name: "value"
          type_attr: "T"
        }
        output_arg {
          name: "output_ref"
          type_attr: "T"
          is_ref: true
        }
        attr {
          name: "T"
          type: "type"
        }
        attr {
          name: "validate_shape"
          type: "bool"
          default_value {
            b: true
          }
        }
        attr {
          name: "use_locking"
          type: "bool"
          default_value {
            b: true
          }
        }
        allows_uninitialized_input: true
      }
      op {
        name: "BatchToSpaceND"
        input_arg {
          name: "input"
          type_attr: "T"
        }
        input_arg {
          name: "block_shape"
          type_attr: "Tblock_shape"
        }
        input_arg {
          name: "crops"
          type_attr: "Tcrops"
        }
        output_arg {
          name: "output"
          type_attr: "T"
        }
        attr {
          name: "T"
          type: "type"
        }
        attr {
          name: "Tblock_shape"
          type: "type"
          default_value {
            type: DT_INT32
          }
          allowed_values {
            list {
              type: DT_INT32
              type: DT_INT64
            }
          }
        }
        attr {
          name: "Tcrops"
          type: "type"
          default_value {
            type: DT_INT32
          }
          allowed_values {
            list {
              type: DT_INT32
              type: DT_INT64
            }
          }
        }
      }
      op {
        name: "BiasAdd"
        input_arg {
          name: "value"
          type_attr: "T"
        }
        input_arg {
          name: "bias"
          type_attr: "T"
        }
        output_arg {
          name: "output"
          type_attr: "T"
        }
        attr {
          name: "T"
          type: "type"
          allowed_values {
            list {
              type: DT_FLOAT
              type: DT_DOUBLE
              type: DT_INT32
              type: DT_UINT8
              type: DT_INT16
              type: DT_INT8
              type: DT_COMPLEX64
              type: DT_INT64
              type: DT_QINT8
              type: DT_QUINT8
              type: DT_QINT32
              type: DT_BFLOAT16
              type: DT_UINT16
              type: DT_COMPLEX128
              type: DT_HALF
              type: DT_UINT32
              type: DT_UINT64
            }
          }
        }
        attr {
          name: "data_format"
          type: "string"
          default_value {
            s: "NHWC"
          }
          allowed_values {
            list {
              s: "NHWC"
              s: "NCHW"
            }
          }
        }
      }
      op {
        name: "Const"
        output_arg {
          name: "output"
          type_attr: "dtype"
        }
        attr {
          name: "value"
          type: "tensor"
        }
        attr {
          name: "dtype"
          type: "type"
        }
      }
      op {
        name: "Conv2D"
        input_arg {
          name: "input"
          type_attr: "T"
        }
        input_arg {
          name: "filter"
          type_attr: "T"
        }
        output_arg {
          name: "output"
          type_attr: "T"
        }
        attr {
          name: "T"
          type: "type"
          allowed_values {
            list {
              type: DT_HALF
              type: DT_BFLOAT16
              type: DT_FLOAT
              type: DT_DOUBLE
            }
          }
        }
        attr {
          name: "strides"
          type: "list(int)"
        }
        attr {
          name: "use_cudnn_on_gpu"
          type: "bool"
          default_value {
            b: true
          }
        }
        attr {
          name: "padding"
          type: "string"
          allowed_values {
            list {
              s: "SAME"
              s: "VALID"
            }
          }
        }
        attr {
          name: "data_format"
          type: "string"
          default_value {
            s: "NHWC"
          }
          allowed_values {
            list {
              s: "NHWC"
              s: "NCHW"
            }
          }
        }
        attr {
          name: "dilations"
          type: "list(int)"
          default_value {
            list {
              i: 1
              i: 1
              i: 1
              i: 1
            }
          }
        }
      }
      op {
        name: "ExpandDims"
        input_arg {
          name: "input"
          type_attr: "T"
        }
        input_arg {
          name: "dim"
          type_attr: "Tdim"
        }
        output_arg {
          name: "output"
          type_attr: "T"
        }
        attr {
          name: "T"
          type: "type"
        }
        attr {
          name: "Tdim"
          type: "type"
          default_value {
            type: DT_INT32
          }
          allowed_values {
            list {
              type: DT_INT32
              type: DT_INT64
            }
          }
        }
      }
      op {
        name: "Floor"
        input_arg {
          name: "x"
          type_attr: "T"
        }
        output_arg {
          name: "y"
          type_attr: "T"
        }
        attr {
          name: "T"
          type: "type"
          allowed_values {
            list {
              type: DT_BFLOAT16
              type: DT_HALF
              type: DT_FLOAT
              type: DT_DOUBLE
            }
          }
        }
      }
      op {
        name: "GatherV2"
        input_arg {
          name: "params"
          type_attr: "Tparams"
        }
        input_arg {
          name: "indices"
          type_attr: "Tindices"
        }
        input_arg {
          name: "axis"
          type_attr: "Taxis"
        }
        output_arg {
          name: "output"
          type_attr: "Tparams"
        }
        attr {
          name: "Tparams"
          type: "type"
        }
        attr {
          name: "Tindices"
          type: "type"
          allowed_values {
            list {
              type: DT_INT32
              type: DT_INT64
            }
          }
        }
        attr {
          name: "Taxis"
          type: "type"
          allowed_values {
            list {
              type: DT_INT32
              type: DT_INT64
            }
          }
        }
      }
      op {
        name: "HashTableV2"
        output_arg {
          name: "table_handle"
          type: DT_RESOURCE
        }
        attr {
          name: "container"
          type: "string"
          default_value {
            s: ""
          }
        }
        attr {
          name: "shared_name"
          type: "string"
          default_value {
            s: ""
          }
        }
        attr {
          name: "use_node_name_sharing"
          type: "bool"
          default_value {
            b: false
          }
        }
        attr {
          name: "key_dtype"
          type: "type"
        }
        attr {
          name: "value_dtype"
          type: "type"
        }
        is_stateful: true
      }
      op {
        name: "Identity"
        input_arg {
          name: "input"
          type_attr: "T"
        }
        output_arg {
          name: "output"
          type_attr: "T"
        }
        attr {
          name: "T"
          type: "type"
        }
      }
      op {
        name: "InitializeTableFromTextFileV2"
        input_arg {
          name: "table_handle"
          type: DT_RESOURCE
        }
        input_arg {
          name: "filename"
          type: DT_STRING
        }
        attr {
          name: "key_index"
          type: "int"
          has_minimum: true
          minimum: -2
        }
        attr {
          name: "value_index"
          type: "int"
          has_minimum: true
          minimum: -2
        }
        attr {
          name: "vocab_size"
          type: "int"
          default_value {
            i: -1
          }
          has_minimum: true
          minimum: -1
        }
        attr {
          name: "delimiter"
          type: "string"
          default_value {
            s: "\t"
          }
        }
        is_stateful: true
      }
      op {
        name: "LookupTableFindV2"
        input_arg {
          name: "table_handle"
          type: DT_RESOURCE
        }
        input_arg {
          name: "keys"
          type_attr: "Tin"
        }
        input_arg {
          name: "default_value"
          type_attr: "Tout"
        }
        output_arg {
          name: "values"
          type_attr: "Tout"
        }
        attr {
          name: "Tin"
          type: "type"
        }
        attr {
          name: "Tout"
          type: "type"
        }
        is_stateful: true
      }
      op {
        name: "MatMul"
        input_arg {
          name: "a"
          type_attr: "T"
        }
        input_arg {
          name: "b"
          type_attr: "T"
        }
        output_arg {
          name: "product"
          type_attr: "T"
        }
        attr {
          name: "transpose_a"
          type: "bool"
          default_value {
            b: false
          }
        }
        attr {
          name: "transpose_b"
          type: "bool"
          default_value {
            b: false
          }
        }
        attr {
          name: "T"
          type: "type"
          allowed_values {
            list {
              type: DT_BFLOAT16
              type: DT_HALF
              type: DT_FLOAT
              type: DT_DOUBLE
              type: DT_INT32
              type: DT_COMPLEX64
              type: DT_COMPLEX128
            }
          }
        }
      }
      op {
        name: "Mean"
        input_arg {
          name: "input"
          type_attr: "T"
        }
        input_arg {
          name: "reduction_indices"
          type_attr: "Tidx"
        }
        output_arg {
          name: "output"
          type_attr: "T"
        }
        attr {
          name: "keep_dims"
          type: "bool"
          default_value {
            b: false
          }
        }
        attr {
          name: "T"
          type: "type"
          allowed_values {
            list {
              type: DT_FLOAT
              type: DT_DOUBLE
              type: DT_INT32
              type: DT_UINT8
              type: DT_INT16
              type: DT_INT8
              type: DT_COMPLEX64
              type: DT_INT64
              type: DT_QINT8
              type: DT_QUINT8
              type: DT_QINT32
              type: DT_BFLOAT16
              type: DT_UINT16
              type: DT_COMPLEX128
              type: DT_HALF
              type: DT_UINT32
              type: DT_UINT64
            }
          }
        }
        attr {
          name: "Tidx"
          type: "type"
          default_value {
            type: DT_INT32
          }
          allowed_values {
            list {
              type: DT_INT32
              type: DT_INT64
            }
          }
        }
      }
      op {
        name: "MergeV2Checkpoints"
        input_arg {
          name: "checkpoint_prefixes"
          type: DT_STRING
        }
        input_arg {
          name: "destination_prefix"
          type: DT_STRING
        }
        attr {
          name: "delete_old_dirs"
          type: "bool"
          default_value {
            b: true
          }
        }
        is_stateful: true
      }
      op {
        name: "Mul"
        input_arg {
          name: "x"
          type_attr: "T"
        }
        input_arg {
          name: "y"
          type_attr: "T"
        }
        output_arg {
          name: "z"
          type_attr: "T"
        }
        attr {
          name: "T"
          type: "type"
          allowed_values {
            list {
              type: DT_BFLOAT16
              type: DT_HALF
              type: DT_FLOAT
              type: DT_DOUBLE
              type: DT_UINT8
              type: DT_INT8
              type: DT_UINT16
              type: DT_INT16
              type: DT_INT32
              type: DT_INT64
              type: DT_COMPLEX64
              type: DT_COMPLEX128
            }
          }
        }
        is_commutative: true
      }
      op {
        name: "NoOp"
      }
      op {
        name: "Pack"
        input_arg {
          name: "values"
          type_attr: "T"
          number_attr: "N"
        }
        output_arg {
          name: "output"
          type_attr: "T"
        }
        attr {
          name: "N"
          type: "int"
          has_minimum: true
          minimum: 1
        }
        attr {
          name: "T"
          type: "type"
        }
        attr {
          name: "axis"
          type: "int"
          default_value {
            i: 0
          }
        }
      }
      op {
        name: "Pad"
        input_arg {
          name: "input"
          type_attr: "T"
        }
        input_arg {
          name: "paddings"
          type_attr: "Tpaddings"
        }
        output_arg {
          name: "output"
          type_attr: "T"
        }
        attr {
          name: "T"
          type: "type"
        }
        attr {
          name: "Tpaddings"
          type: "type"
          default_value {
            type: DT_INT32
          }
          allowed_values {
            list {
              type: DT_INT32
              type: DT_INT64
            }
          }
        }
      }
      op {
        name: "Placeholder"
        output_arg {
          name: "output"
          type_attr: "dtype"
        }
        attr {
          name: "dtype"
          type: "type"
        }
        attr {
          name: "shape"
          type: "shape"
          default_value {
            shape {
              unknown_rank: true
            }
          }
        }
      }
      op {
        name: "RandomUniform"
        input_arg {
          name: "shape"
          type_attr: "T"
        }
        output_arg {
          name: "output"
          type_attr: "dtype"
        }
        attr {
          name: "seed"
          type: "int"
          default_value {
            i: 0
          }
        }
        attr {
          name: "seed2"
          type: "int"
          default_value {
            i: 0
          }
        }
        attr {
          name: "dtype"
          type: "type"
          allowed_values {
            list {
              type: DT_HALF
              type: DT_BFLOAT16
              type: DT_FLOAT
              type: DT_DOUBLE
            }
          }
        }
        attr {
          name: "T"
          type: "type"
          allowed_values {
            list {
              type: DT_INT32
              type: DT_INT64
            }
          }
        }
        is_stateful: true
      }
      op {
        name: "RealDiv"
        input_arg {
          name: "x"
          type_attr: "T"
        }
        input_arg {
          name: "y"
          type_attr: "T"
        }
        output_arg {
          name: "z"
          type_attr: "T"
        }
        attr {
          name: "T"
          type: "type"
          allowed_values {
            list {
              type: DT_BFLOAT16
              type: DT_HALF
              type: DT_FLOAT
              type: DT_DOUBLE
              type: DT_UINT8
              type: DT_INT8
              type: DT_UINT16
              type: DT_INT16
              type: DT_INT32
              type: DT_INT64
              type: DT_COMPLEX64
              type: DT_COMPLEX128
            }
          }
        }
      }
      op {
        name: "Relu"
        input_arg {
          name: "features"
          type_attr: "T"
        }
        output_arg {
          name: "activations"
          type_attr: "T"
        }
        attr {
          name: "T"
          type: "type"
          allowed_values {
            list {
              type: DT_FLOAT
              type: DT_DOUBLE
              type: DT_INT32
              type: DT_UINT8
              type: DT_INT16
              type: DT_INT8
              type: DT_INT64
              type: DT_BFLOAT16
              type: DT_UINT16
              type: DT_HALF
              type: DT_UINT32
              type: DT_UINT64
            }
          }
        }
      }
      op {
        name: "RestoreV2"
        input_arg {
          name: "prefix"
          type: DT_STRING
        }
        input_arg {
          name: "tensor_names"
          type: DT_STRING
        }
        input_arg {
          name: "shape_and_slices"
          type: DT_STRING
        }
        output_arg {
          name: "tensors"
          type_list_attr: "dtypes"
        }
        attr {
          name: "dtypes"
          type: "list(type)"
          has_minimum: true
          minimum: 1
        }
        is_stateful: true
      }
      op {
        name: "Rsqrt"
        input_arg {
          name: "x"
          type_attr: "T"
        }
        output_arg {
          name: "y"
          type_attr: "T"
        }
        attr {
          name: "T"
          type: "type"
          allowed_values {
            list {
              type: DT_BFLOAT16
              type: DT_HALF
              type: DT_FLOAT
              type: DT_DOUBLE
              type: DT_COMPLEX64
              type: DT_COMPLEX128
            }
          }
        }
      }
      op {
        name: "SaveV2"
        input_arg {
          name: "prefix"
          type: DT_STRING
        }
        input_arg {
          name: "tensor_names"
          type: DT_STRING
        }
        input_arg {
          name: "shape_and_slices"
          type: DT_STRING
        }
        input_arg {
          name: "tensors"
          type_list_attr: "dtypes"
        }
        attr {
          name: "dtypes"
          type: "list(type)"
          has_minimum: true
          minimum: 1
        }
        is_stateful: true
      }
      op {
        name: "ShardedFilename"
        input_arg {
          name: "basename"
          type: DT_STRING
        }
        input_arg {
          name: "shard"
          type: DT_INT32
        }
        input_arg {
          name: "num_shards"
          type: DT_INT32
        }
        output_arg {
          name: "filename"
          type: DT_STRING
        }
      }
      op {
        name: "Slice"
        input_arg {
          name: "input"
          type_attr: "T"
        }
        input_arg {
          name: "begin"
          type_attr: "Index"
        }
        input_arg {
          name: "size"
          type_attr: "Index"
        }
        output_arg {
          name: "output"
          type_attr: "T"
        }
        attr {
          name: "T"
          type: "type"
        }
        attr {
          name: "Index"
          type: "type"
          allowed_values {
            list {
              type: DT_INT32
              type: DT_INT64
            }
          }
        }
      }
      op {
        name: "SpaceToBatchND"
        input_arg {
          name: "input"
          type_attr: "T"
        }
        input_arg {
          name: "block_shape"
          type_attr: "Tblock_shape"
        }
        input_arg {
          name: "paddings"
          type_attr: "Tpaddings"
        }
        output_arg {
          name: "output"
          type_attr: "T"
        }
        attr {
          name: "T"
          type: "type"
        }
        attr {
          name: "Tblock_shape"
          type: "type"
          default_value {
            type: DT_INT32
          }
          allowed_values {
            list {
              type: DT_INT32
              type: DT_INT64
            }
          }
        }
        attr {
          name: "Tpaddings"
          type: "type"
          default_value {
            type: DT_INT32
          }
          allowed_values {
            list {
              type: DT_INT32
              type: DT_INT64
            }
          }
        }
      }
      op {
        name: "SparseToDense"
        input_arg {
          name: "sparse_indices"
          type_attr: "Tindices"
        }
        input_arg {
          name: "output_shape"
          type_attr: "Tindices"
        }
        input_arg {
          name: "sparse_values"
          type_attr: "T"
        }
        input_arg {
          name: "default_value"
          type_attr: "T"
        }
        output_arg {
          name: "dense"
          type_attr: "T"
        }
        attr {
          name: "validate_indices"
          type: "bool"
          default_value {
            b: true
          }
        }
        attr {
          name: "T"
          type: "type"
        }
        attr {
          name: "Tindices"
          type: "type"
          allowed_values {
            list {
              type: DT_INT32
              type: DT_INT64
            }
          }
        }
      }
      op {
        name: "SquaredDifference"
        input_arg {
          name: "x"
          type_attr: "T"
        }
        input_arg {
          name: "y"
          type_attr: "T"
        }
        output_arg {
          name: "z"
          type_attr: "T"
        }
        attr {
          name: "T"
          type: "type"
          allowed_values {
            list {
              type: DT_BFLOAT16
              type: DT_HALF
              type: DT_FLOAT
              type: DT_DOUBLE
              type: DT_INT32
              type: DT_INT64
              type: DT_COMPLEX64
              type: DT_COMPLEX128
            }
          }
        }
        is_commutative: true
      }
      op {
        name: "Squeeze"
        input_arg {
          name: "input"
          type_attr: "T"
        }
        output_arg {
          name: "output"
          type_attr: "T"
        }
        attr {
          name: "T"
          type: "type"
        }
        attr {
          name: "squeeze_dims"
          type: "list(int)"
          default_value {
            list {
            }
          }
          has_minimum: true
        }
      }
      op {
        name: "StopGradient"
        input_arg {
          name: "input"
          type_attr: "T"
        }
        output_arg {
          name: "output"
          type_attr: "T"
        }
        attr {
          name: "T"
          type: "type"
        }
      }
      op {
        name: "StridedSlice"
        input_arg {
          name: "input"
          type_attr: "T"
        }
        input_arg {
          name: "begin"
          type_attr: "Index"
        }
        input_arg {
          name: "end"
          type_attr: "Index"
        }
        input_arg {
          name: "strides"
          type_attr: "Index"
        }
        output_arg {
          name: "output"
          type_attr: "T"
        }
        attr {
          name: "T"
          type: "type"
        }
        attr {
          name: "Index"
          type: "type"
          allowed_values {
            list {
              type: DT_INT32
              type: DT_INT64
            }
          }
        }
        attr {
          name: "begin_mask"
          type: "int"
          default_value {
            i: 0
          }
        }
        attr {
          name: "end_mask"
          type: "int"
          default_value {
            i: 0
          }
        }
        attr {
          name: "ellipsis_mask"
          type: "int"
          default_value {
            i: 0
          }
        }
        attr {
          name: "new_axis_mask"
          type: "int"
          default_value {
            i: 0
          }
        }
        attr {
          name: "shrink_axis_mask"
          type: "int"
          default_value {
            i: 0
          }
        }
      }
      op {
        name: "StringJoin"
        input_arg {
          name: "inputs"
          type: DT_STRING
          number_attr: "N"
        }
        output_arg {
          name: "output"
          type: DT_STRING
        }
        attr {
          name: "N"
          type: "int"
          has_minimum: true
          minimum: 1
        }
        attr {
          name: "separator"
          type: "string"
          default_value {
            s: ""
          }
        }
      }
      op {
        name: "StringSplit"
        input_arg {
          name: "input"
          type: DT_STRING
        }
        input_arg {
          name: "delimiter"
          type: DT_STRING
        }
        output_arg {
          name: "indices"
          type: DT_INT64
        }
        output_arg {
          name: "values"
          type: DT_STRING
        }
        output_arg {
          name: "shape"
          type: DT_INT64
        }
        attr {
          name: "skip_empty"
          type: "bool"
          default_value {
            b: true
          }
        }
      }
      op {
        name: "Sub"
        input_arg {
          name: "x"
          type_attr: "T"
        }
        input_arg {
          name: "y"
          type_attr: "T"
        }
        output_arg {
          name: "z"
          type_attr: "T"
        }
        attr {
          name: "T"
          type: "type"
          allowed_values {
            list {
              type: DT_BFLOAT16
              type: DT_HALF
              type: DT_FLOAT
              type: DT_DOUBLE
              type: DT_UINT8
              type: DT_INT8
              type: DT_UINT16
              type: DT_INT16
              type: DT_INT32
              type: DT_INT64
              type: DT_COMPLEX64
              type: DT_COMPLEX128
            }
          }
        }
      }
      op {
        name: "Sum"
        input_arg {
          name: "input"
          type_attr: "T"
        }
        input_arg {
          name: "reduction_indices"
          type_attr: "Tidx"
        }
        output_arg {
          name: "output"
          type_attr: "T"
        }
        attr {
          name: "keep_dims"
          type: "bool"
          default_value {
            b: false
          }
        }
        attr {
          name: "T"
          type: "type"
          allowed_values {
            list {
              type: DT_FLOAT
              type: DT_DOUBLE
              type: DT_INT32
              type: DT_UINT8
              type: DT_INT16
              type: DT_INT8
              type: DT_COMPLEX64
              type: DT_INT64
              type: DT_QINT8
              type: DT_QUINT8
              type: DT_QINT32
              type: DT_BFLOAT16
              type: DT_UINT16
              type: DT_COMPLEX128
              type: DT_HALF
              type: DT_UINT32
              type: DT_UINT64
            }
          }
        }
        attr {
          name: "Tidx"
          type: "type"
          default_value {
            type: DT_INT32
          }
          allowed_values {
            list {
              type: DT_INT32
              type: DT_INT64
            }
          }
        }
      }
      op {
        name: "VariableV2"
        output_arg {
          name: "ref"
          type_attr: "dtype"
          is_ref: true
        }
        attr {
          name: "shape"
          type: "shape"
        }
        attr {
          name: "dtype"
          type: "type"
        }
        attr {
          name: "container"
          type: "string"
          default_value {
            s: ""
          }
        }
        attr {
          name: "shared_name"
          type: "string"
          default_value {
            s: ""
          }
        }
        is_stateful: true
      }
    }
    tags: "serve"
    tensorflow_version: "1.10.1"
    tensorflow_git_version: "v1.10.1-0-g4dcfddc5d1"
    stripped_default_attrs: true
  }
  graph_def {
    node {
      name: "global_step/Initializer/zeros"
      op: "Const"
      attr {
        key: "_class"
        value {
          list {
            s: "loc:@global_step"
          }
        }
      }
      attr {
        key: "_output_shapes"
        value {
          list {
            shape {
            }
          }
        }
      }
      attr {
        key: "dtype"
        value {
          type: DT_INT64
        }
      }
      attr {
        key: "value"
        value {
          tensor {
            dtype: DT_INT64
            tensor_shape {
            }
            int64_val: 0
          }
        }
      }
    }
    node {
      name: "global_step"
      op: "VariableV2"
      attr {
        key: "_class"
        value {
          list {
            s: "loc:@global_step"
          }
        }
      }
      attr {
        key: "_output_shapes"
        value {
          list {
            shape {
            }
          }
        }
      }
      attr {
        key: "dtype"
        value {
          type: DT_INT64
        }
      }
      attr {
        key: "shape"
        value {
          shape {
          }
        }
      }
    }
    node {
      name: "global_step/Assign"
      op: "Assign"
      input: "global_step"
      input: "global_step/Initializer/zeros"
      attr {
        key: "T"
        value {
          type: DT_INT64
        }
      }
      attr {
        key: "_class"
        value {
          list {
            s: "loc:@global_step"
          }
        }
      }
      attr {
        key: "_output_shapes"
        value {
          list {
            shape {
            }
          }
        }
      }
    }
    node {
      name: "global_step/read"
      op: "Identity"
      input: "global_step"
      attr {
        key: "T"
        value {
          type: DT_INT64
        }
      }
      attr {
        key: "_class"
        value {
          list {
            s: "loc:@global_step"
          }
        }
      }
      attr {
        key: "_output_shapes"
        value {
          list {
            shape {
            }
          }
        }
      }
    }
    node {
      name: "Placeholder"
      op: "Placeholder"
      attr {
        key: "_output_shapes"
        value {
          list {
            shape {
              dim {
                size: -1
              }
            }
          }
        }
      }
      attr {
        key: "dtype"
        value {
          type: DT_STRING
        }
      }
      attr {
        key: "shape"
        value {
          shape {
            dim {
              size: -1
            }
          }
        }
      }
    }
    node {
      name: "Const"
      op: "Const"
      attr {
        key: "_output_shapes"
        value {
          list {
            shape {
            }
          }
        }
      }
      attr {
        key: "dtype"
        value {
          type: DT_STRING
        }
      }
      attr {
        key: "value"
        value {
          tensor {
            dtype: DT_STRING
            tensor_shape {
            }
            string_val: " "
          }
        }
      }
    }
    node {
      name: "StringSplit"
      op: "StringSplit"
      input: "Placeholder"
      input: "Const"
      attr {
        key: "_output_shapes"
        value {
          list {
            shape {
              dim {
                size: -1
              }
              dim {
                size: 2
              }
            }
            shape {
              dim {
                size: -1
              }
            }
            shape {
              dim {
                size: 2
              }
            }
          }
        }
      }
    }
    node {
      name: "SparseToDense/default_value"
      op: "Const"
      attr {
        key: "_output_shapes"
        value {
          list {
            shape {
            }
          }
        }
      }
      attr {
        key: "dtype"
        value {
          type: DT_STRING
        }
      }
      attr {
        key: "value"
        value {
          tensor {
            dtype: DT_STRING
            tensor_shape {
            }
            string_val: "<pad>"
          }
        }
      }
    }
    node {
      name: "SparseToDense"
      op: "SparseToDense"
      input: "StringSplit"
      input: "StringSplit:2"
      input: "StringSplit:1"
      input: "SparseToDense/default_value"
      attr {
        key: "T"
        value {
          type: DT_STRING
        }
      }
      attr {
        key: "Tindices"
        value {
          type: DT_INT64
        }
      }
      attr {
        key: "_output_shapes"
        value {
          list {
            shape {
              dim {
                size: -1
              }
              dim {
                size: -1
              }
            }
          }
        }
      }
    }
    node {
      name: "string_to_index/hash_table"
      op: "HashTableV2"
      attr {
        key: "_output_shapes"
        value {
          list {
            shape {
            }
          }
        }
      }
      attr {
        key: "key_dtype"
        value {
          type: DT_STRING
        }
      }
      attr {
        key: "shared_name"
        value {
          s: "hash_table_data/kaggle_processed_data/vocab_-2_-1"
        }
      }
      attr {
        key: "value_dtype"
        value {
          type: DT_INT64
        }
      }
    }
    node {
      name: "string_to_index/hash_table/Const"
      op: "Const"
      attr {
        key: "_output_shapes"
        value {
          list {
            shape {
            }
          }
        }
      }
      attr {
        key: "dtype"
        value {
          type: DT_INT64
        }
      }
      attr {
        key: "value"
        value {
          tensor {
            dtype: DT_INT64
            tensor_shape {
            }
            int64_val: 0
          }
        }
      }
    }
    node {
      name: "string_to_index/hash_table/table_init/asset_filepath"
      op: "Const"
      attr {
        key: "_output_shapes"
        value {
          list {
            shape {
            }
          }
        }
      }
      attr {
        key: "dtype"
        value {
          type: DT_STRING
        }
      }
      attr {
        key: "value"
        value {
          tensor {
            dtype: DT_STRING
            tensor_shape {
            }
            string_val: "data/kaggle_processed_data/vocab"
          }
        }
      }
    }
    node {
      name: "string_to_index/hash_table/table_init"
      op: "InitializeTableFromTextFileV2"
      input: "string_to_index/hash_table"
      input: "string_to_index/hash_table/table_init/asset_filepath"
      attr {
        key: "key_index"
        value {
          i: -2
        }
      }
      attr {
        key: "value_index"
        value {
          i: -1
        }
      }
    }
    node {
      name: "hash_table_Lookup"
      op: "LookupTableFindV2"
      input: "string_to_index/hash_table"
      input: "SparseToDense"
      input: "string_to_index/hash_table/Const"
      attr {
        key: "Tin"
        value {
          type: DT_STRING
        }
      }
      attr {
        key: "Tout"
        value {
          type: DT_INT64
        }
      }
      attr {
        key: "_output_shapes"
        value {
          list {
            shape {
              dim {
                size: -1
              }
              dim {
                size: -1
              }
            }
          }
        }
      }
    }
    node {
      name: "Sum/reduction_indices"
      op: "Const"
      attr {
        key: "_output_shapes"
        value {
          list {
            shape {
            }
          }
        }
      }
      attr {
        key: "dtype"
        value {
          type: DT_INT32
        }
      }
      attr {
        key: "value"
        value {
          tensor {
            dtype: DT_INT32
            tensor_shape {
            }
            int_val: 1
          }
        }
      }
    }
    node {
      name: "Sum"
      op: "Sum"
      input: "hash_table_Lookup"
      input: "Sum/reduction_indices"
      attr {
        key: "T"
        value {
          type: DT_INT64
        }
      }
      attr {
        key: "_output_shapes"
        value {
          list {
            shape {
              dim {
                size: -1
              }
            }
          }
        }
      }
    }
    node {
      name: "Const_1"
      op: "Const"
      attr {
        key: "_output_shapes"
        value {
          list {
            shape {
              dim {
                size: 2
              }
              dim {
                size: 2
              }
            }
          }
        }
      }
      attr {
        key: "dtype"
        value {
          type: DT_INT32
        }
      }
      attr {
        key: "value"
        value {
          tensor {
            dtype: DT_INT32
            tensor_shape {
              dim {
                size: 2
              }
              dim {
                size: 2
              }
            }
            tensor_content: "\000\000\000\000\000\000\000\000\000\000\000\000\036\000\000\000"
          }
        }
      }
    }
    node {
      name: "Pad"
      op: "Pad"
      input: "hash_table_Lookup"
      input: "Const_1"
      attr {
        key: "T"
        value {
          type: DT_INT64
        }
      }
      attr {
        key: "_output_shapes"
        value {
          list {
            shape {
              dim {
                size: -1
              }
              dim {
                size: -1
              }
            }
          }
        }
      }
    }
    node {
      name: "Slice/begin"
      op: "Const"
      attr {
        key: "_output_shapes"
        value {
          list {
            shape {
              dim {
                size: 2
              }
            }
          }
        }
      }
      attr {
        key: "dtype"
        value {
          type: DT_INT32
        }
      }
      attr {
        key: "value"
        value {
          tensor {
            dtype: DT_INT32
            tensor_shape {
              dim {
                size: 2
              }
            }
            tensor_content: "\000\000\000\000\000\000\000\000"
          }
        }
      }
    }
    node {
      name: "Slice/size"
      op: "Const"
      attr {
        key: "_output_shapes"
        value {
          list {
            shape {
              dim {
                size: 2
              }
            }
          }
        }
      }
      attr {
        key: "dtype"
        value {
          type: DT_INT32
        }
      }
      attr {
        key: "value"
        value {
          tensor {
            dtype: DT_INT32
            tensor_shape {
              dim {
                size: 2
              }
            }
            tensor_content: "\377\377\377\377\036\000\000\000"
          }
        }
      }
    }
    node {
      name: "Slice"
      op: "Slice"
      input: "Pad"
      input: "Slice/begin"
      input: "Slice/size"
      attr {
        key: "Index"
        value {
          type: DT_INT32
        }
      }
      attr {
        key: "T"
        value {
          type: DT_INT64
        }
      }
      attr {
        key: "_output_shapes"
        value {
          list {
            shape {
              dim {
                size: -1
              }
              dim {
                size: 30
              }
            }
          }
        }
      }
    }
    node {
      name: "embedding_scope/embedding/Initializer/random_uniform/shape"
      op: "Const"
      attr {
        key: "_class"
        value {
          list {
            s: "loc:@embedding_scope/embedding"
          }
        }
      }
      attr {
        key: "_output_shapes"
        value {
          list {
            shape {
              dim {
                size: 2
              }
            }
          }
        }
      }
      attr {
        key: "dtype"
        value {
          type: DT_INT32
        }
      }
      attr {
        key: "value"
        value {
          tensor {
            dtype: DT_INT32
            tensor_shape {
              dim {
                size: 2
              }
            }
            tensor_content: " N\000\000\200\000\000\000"
          }
        }
      }
    }
    node {
      name: "embedding_scope/embedding/Initializer/random_uniform/min"
      op: "Const"
      attr {
        key: "_class"
        value {
          list {
            s: "loc:@embedding_scope/embedding"
          }
        }
      }
      attr {
        key: "_output_shapes"
        value {
          list {
            shape {
            }
          }
        }
      }
      attr {
        key: "dtype"
        value {
          type: DT_FLOAT
        }
      }
      attr {
        key: "value"
        value {
          tensor {
            dtype: DT_FLOAT
            tensor_shape {
            }
            float_val: -0.5
          }
        }
      }
    }
    node {
      name: "embedding_scope/embedding/Initializer/random_uniform/max"
      op: "Const"
      attr {
        key: "_class"
        value {
          list {
            s: "loc:@embedding_scope/embedding"
          }
        }
      }
      attr {
        key: "_output_shapes"
        value {
          list {
            shape {
            }
          }
        }
      }
      attr {
        key: "dtype"
        value {
          type: DT_FLOAT
        }
      }
      attr {
        key: "value"
        value {
          tensor {
            dtype: DT_FLOAT
            tensor_shape {
            }
            float_val: 0.5
          }
        }
      }
    }
    node {
      name: "embedding_scope/embedding/Initializer/random_uniform/RandomUniform"
      op: "RandomUniform"
      input: "embedding_scope/embedding/Initializer/random_uniform/shape"
      attr {
        key: "T"
        value {
          type: DT_INT32
        }
      }
      attr {
        key: "_class"
        value {
          list {
            s: "loc:@embedding_scope/embedding"
          }
        }
      }
      attr {
        key: "_output_shapes"
        value {
          list {
            shape {
              dim {
                size: 20000
              }
              dim {
                size: 128
              }
            }
          }
        }
      }
      attr {
        key: "dtype"
        value {
          type: DT_FLOAT
        }
      }
      attr {
        key: "seed"
        value {
          i: 1234
        }
      }
      attr {
        key: "seed2"
        value {
          i: 24
        }
      }
    }
    node {
      name: "embedding_scope/embedding/Initializer/random_uniform/sub"
      op: "Sub"
      input: "embedding_scope/embedding/Initializer/random_uniform/max"
      input: "embedding_scope/embedding/Initializer/random_uniform/min"
      attr {
        key: "T"
        value {
          type: DT_FLOAT
        }
      }
      attr {
        key: "_class"
        value {
          list {
            s: "loc:@embedding_scope/embedding"
          }
        }
      }
      attr {
        key: "_output_shapes"
        value {
          list {
            shape {
            }
          }
        }
      }
    }
    node {
      name: "embedding_scope/embedding/Initializer/random_uniform/mul"
      op: "Mul"
      input: "embedding_scope/embedding/Initializer/random_uniform/RandomUniform"
      input: "embedding_scope/embedding/Initializer/random_uniform/sub"
      attr {
        key: "T"
        value {
          type: DT_FLOAT
        }
      }
      attr {
        key: "_class"
        value {
          list {
            s: "loc:@embedding_scope/embedding"
          }
        }
      }
      attr {
        key: "_output_shapes"
        value {
          list {
            shape {
              dim {
                size: 20000
              }
              dim {
                size: 128
              }
            }
          }
        }
      }
    }
    node {
      name: "embedding_scope/embedding/Initializer/random_uniform"
      op: "Add"
      input: "embedding_scope/embedding/Initializer/random_uniform/mul"
      input: "embedding_scope/embedding/Initializer/random_uniform/min"
      attr {
        key: "T"
        value {
          type: DT_FLOAT
        }
      }
      attr {
        key: "_class"
        value {
          list {
            s: "loc:@embedding_scope/embedding"
          }
        }
      }
      attr {
        key: "_output_shapes"
        value {
          list {
            shape {
              dim {
                size: 20000
              }
              dim {
                size: 128
              }
            }
          }
        }
      }
    }
    node {
      name: "embedding_scope/embedding"
      op: "VariableV2"
      attr {
        key: "_class"
        value {
          list {
            s: "loc:@embedding_scope/embedding"
          }
        }
      }
      attr {
        key: "_output_shapes"
        value {
          list {
            shape {
              dim {
                size: 20000
              }
              dim {
                size: 128
              }
            }
          }
        }
      }
      attr {
        key: "dtype"
        value {
          type: DT_FLOAT
        }
      }
      attr {
        key: "shape"
        value {
          shape {
            dim {
              size: 20000
            }
            dim {
              size: 128
            }
          }
        }
      }
    }
    node {
      name: "embedding_scope/embedding/Assign"
      op: "Assign"
      input: "embedding_scope/embedding"
      input: "embedding_scope/embedding/Initializer/random_uniform"
      attr {
        key: "T"
        value {
          type: DT_FLOAT
        }
      }
      attr {
        key: "_class"
        value {
          list {
            s: "loc:@embedding_scope/embedding"
          }
        }
      }
      attr {
        key: "_output_shapes"
        value {
          list {
            shape {
              dim {
                size: 20000
              }
              dim {
                size: 128
              }
            }
          }
        }
      }
    }
    node {
      name: "embedding_scope/embedding/read"
      op: "Identity"
      input: "embedding_scope/embedding"
      attr {
        key: "T"
        value {
          type: DT_FLOAT
        }
      }
      attr {
        key: "_class"
        value {
          list {
            s: "loc:@embedding_scope/embedding"
          }
        }
      }
      attr {
        key: "_output_shapes"
        value {
          list {
            shape {
              dim {
                size: 20000
              }
              dim {
                size: 128
              }
            }
          }
        }
      }
    }
    node {
      name: "embedding_scope/input_embed/axis"
      op: "Const"
      attr {
        key: "_class"
        value {
          list {
            s: "loc:@embedding_scope/embedding"
          }
        }
      }
      attr {
        key: "_output_shapes"
        value {
          list {
            shape {
            }
          }
        }
      }
      attr {
        key: "dtype"
        value {
          type: DT_INT32
        }
      }
      attr {
        key: "value"
        value {
          tensor {
            dtype: DT_INT32
            tensor_shape {
            }
            int_val: 0
          }
        }
      }
    }
    node {
      name: "embedding_scope/input_embed"
      op: "GatherV2"
      input: "embedding_scope/embedding/read"
      input: "Slice"
      input: "embedding_scope/input_embed/axis"
      attr {
        key: "Taxis"
        value {
          type: DT_INT32
        }
      }
      attr {
        key: "Tindices"
        value {
          type: DT_INT64
        }
      }
      attr {
        key: "Tparams"
        value {
          type: DT_FLOAT
        }
      }
      attr {
        key: "_class"
        value {
          list {
            s: "loc:@embedding_scope/embedding"
          }
        }
      }
      attr {
        key: "_output_shapes"
        value {
          list {
            shape {
              dim {
                size: -1
              }
              dim {
                size: 30
              }
              dim {
                size: 128
              }
            }
          }
        }
      }
    }
    node {
      name: "conv1d/kernel/Initializer/random_uniform/shape"
      op: "Const"
      attr {
        key: "_class"
        value {
          list {
            s: "loc:@conv1d/kernel"
          }
        }
      }
      attr {
        key: "_output_shapes"
        value {
          list {
            shape {
              dim {
                size: 3
              }
            }
          }
        }
      }
      attr {
        key: "dtype"
        value {
          type: DT_INT32
        }
      }
      attr {
        key: "value"
        value {
          tensor {
            dtype: DT_INT32
            tensor_shape {
              dim {
                size: 3
              }
            }
            tensor_content: "\001\000\000\000\200\000\000\000d\000\000\000"
          }
        }
      }
    }
    node {
      name: "conv1d/kernel/Initializer/random_uniform/min"
      op: "Const"
      attr {
        key: "_class"
        value {
          list {
            s: "loc:@conv1d/kernel"
          }
        }
      }
      attr {
        key: "_output_shapes"
        value {
          list {
            shape {
            }
          }
        }
      }
      attr {
        key: "dtype"
        value {
          type: DT_FLOAT
        }
      }
      attr {
        key: "value"
        value {
          tensor {
            dtype: DT_FLOAT
            tensor_shape {
            }
            float_val: -0.16222141683101654
          }
        }
      }
    }
    node {
      name: "conv1d/kernel/Initializer/random_uniform/max"
      op: "Const"
      attr {
        key: "_class"
        value {
          list {
            s: "loc:@conv1d/kernel"
          }
        }
      }
      attr {
        key: "_output_shapes"
        value {
          list {
            shape {
            }
          }
        }
      }
      attr {
        key: "dtype"
        value {
          type: DT_FLOAT
        }
      }
      attr {
        key: "value"
        value {
          tensor {
            dtype: DT_FLOAT
            tensor_shape {
            }
            float_val: 0.16222141683101654
          }
        }
      }
    }
    node {
      name: "conv1d/kernel/Initializer/random_uniform/RandomUniform"
      op: "RandomUniform"
      input: "conv1d/kernel/Initializer/random_uniform/shape"
      attr {
        key: "T"
        value {
          type: DT_INT32
        }
      }
      attr {
        key: "_class"
        value {
          list {
            s: "loc:@conv1d/kernel"
          }
        }
      }
      attr {
        key: "_output_shapes"
        value {
          list {
            shape {
              dim {
                size: 1
              }
              dim {
                size: 128
              }
              dim {
                size: 100
              }
            }
          }
        }
      }
      attr {
        key: "dtype"
        value {
          type: DT_FLOAT
        }
      }
      attr {
        key: "seed"
        value {
          i: 1234
        }
      }
      attr {
        key: "seed2"
        value {
          i: 36
        }
      }
    }
    node {
      name: "conv1d/kernel/Initializer/random_uniform/sub"
      op: "Sub"
      input: "conv1d/kernel/Initializer/random_uniform/max"
      input: "conv1d/kernel/Initializer/random_uniform/min"
      attr {
        key: "T"
        value {
          type: DT_FLOAT
        }
      }
      attr {
        key: "_class"
        value {
          list {
            s: "loc:@conv1d/kernel"
          }
        }
      }
      attr {
        key: "_output_shapes"
        value {
          list {
            shape {
            }
          }
        }
      }
    }
    node {
      name: "conv1d/kernel/Initializer/random_uniform/mul"
      op: "Mul"
      input: "conv1d/kernel/Initializer/random_uniform/RandomUniform"
      input: "conv1d/kernel/Initializer/random_uniform/sub"
      attr {
        key: "T"
        value {
          type: DT_FLOAT
        }
      }
      attr {
        key: "_class"
        value {
          list {
            s: "loc:@conv1d/kernel"
          }
        }
      }
      attr {
        key: "_output_shapes"
        value {
          list {
            shape {
              dim {
                size: 1
              }
              dim {
                size: 128
              }
              dim {
                size: 100
              }
            }
          }
        }
      }
    }
    node {
      name: "conv1d/kernel/Initializer/random_uniform"
      op: "Add"
      input: "conv1d/kernel/Initializer/random_uniform/mul"
      input: "conv1d/kernel/Initializer/random_uniform/min"
      attr {
        key: "T"
        value {
          type: DT_FLOAT
        }
      }
      attr {
        key: "_class"
        value {
          list {
            s: "loc:@conv1d/kernel"
          }
        }
      }
      attr {
        key: "_output_shapes"
        value {
          list {
            shape {
              dim {
                size: 1
              }
              dim {
                size: 128
              }
              dim {
                size: 100
              }
            }
          }
        }
      }
    }
    node {
      name: "conv1d/kernel"
      op: "VariableV2"
      attr {
        key: "_class"
        value {
          list {
            s: "loc:@conv1d/kernel"
          }
        }
      }
      attr {
        key: "_output_shapes"
        value {
          list {
            shape {
              dim {
                size: 1
              }
              dim {
                size: 128
              }
              dim {
                size: 100
              }
            }
          }
        }
      }
      attr {
        key: "dtype"
        value {
          type: DT_FLOAT
        }
      }
      attr {
        key: "shape"
        value {
          shape {
            dim {
              size: 1
            }
            dim {
              size: 128
            }
            dim {
              size: 100
            }
          }
        }
      }
    }
    node {
      name: "conv1d/kernel/Assign"
      op: "Assign"
      input: "conv1d/kernel"
      input: "conv1d/kernel/Initializer/random_uniform"
      attr {
        key: "T"
        value {
          type: DT_FLOAT
        }
      }
      attr {
        key: "_class"
        value {
          list {
            s: "loc:@conv1d/kernel"
          }
        }
      }
      attr {
        key: "_output_shapes"
        value {
          list {
            shape {
              dim {
                size: 1
              }
              dim {
                size: 128
              }
              dim {
                size: 100
              }
            }
          }
        }
      }
    }
    node {
      name: "conv1d/kernel/read"
      op: "Identity"
      input: "conv1d/kernel"
      attr {
        key: "T"
        value {
          type: DT_FLOAT
        }
      }
      attr {
        key: "_class"
        value {
          list {
            s: "loc:@conv1d/kernel"
          }
        }
      }
      attr {
        key: "_output_shapes"
        value {
          list {
            shape {
              dim {
                size: 1
              }
              dim {
                size: 128
              }
              dim {
                size: 100
              }
            }
          }
        }
      }
    }
    node {
      name: "conv1d/bias/Initializer/zeros"
      op: "Const"
      attr {
        key: "_class"
        value {
          list {
            s: "loc:@conv1d/bias"
          }
        }
      }
      attr {
        key: "_output_shapes"
        value {
          list {
            shape {
              dim {
                size: 100
              }
            }
          }
        }
      }
      attr {
        key: "dtype"
        value {
          type: DT_FLOAT
        }
      }
      attr {
        key: "value"
        value {
          tensor {
            dtype: DT_FLOAT
            tensor_shape {
              dim {
                size: 100
              }
            }
            float_val: 0.0
          }
        }
      }
    }
    node {
      name: "conv1d/bias"
      op: "VariableV2"
      attr {
        key: "_class"
        value {
          list {
            s: "loc:@conv1d/bias"
          }
        }
      }
      attr {
        key: "_output_shapes"
        value {
          list {
            shape {
              dim {
                size: 100
              }
            }
          }
        }
      }
      attr {
        key: "dtype"
        value {
          type: DT_FLOAT
        }
      }
      attr {
        key: "shape"
        value {
          shape {
            dim {
              size: 100
            }
          }
        }
      }
    }
    node {
      name: "conv1d/bias/Assign"
      op: "Assign"
      input: "conv1d/bias"
      input: "conv1d/bias/Initializer/zeros"
      attr {
        key: "T"
        value {
          type: DT_FLOAT
        }
      }
      attr {
        key: "_class"
        value {
          list {
            s: "loc:@conv1d/bias"
          }
        }
      }
      attr {
        key: "_output_shapes"
        value {
          list {
            shape {
              dim {
                size: 100
              }
            }
          }
        }
      }
    }
    node {
      name: "conv1d/bias/read"
      op: "Identity"
      input: "conv1d/bias"
      attr {
        key: "T"
        value {
          type: DT_FLOAT
        }
      }
      attr {
        key: "_class"
        value {
          list {
            s: "loc:@conv1d/bias"
          }
        }
      }
      attr {
        key: "_output_shapes"
        value {
          list {
            shape {
              dim {
                size: 100
              }
            }
          }
        }
      }
    }
    node {
      name: "conv1d/dilation_rate"
      op: "Const"
      attr {
        key: "_output_shapes"
        value {
          list {
            shape {
              dim {
                size: 1
              }
            }
          }
        }
      }
      attr {
        key: "dtype"
        value {
          type: DT_INT32
        }
      }
      attr {
        key: "value"
        value {
          tensor {
            dtype: DT_INT32
            tensor_shape {
              dim {
                size: 1
              }
            }
            int_val: 1
          }
        }
      }
    }
    node {
      name: "conv1d/conv1d/ExpandDims/dim"
      op: "Const"
      attr {
        key: "_output_shapes"
        value {
          list {
            shape {
            }
          }
        }
      }
      attr {
        key: "dtype"
        value {
          type: DT_INT32
        }
      }
      attr {
        key: "value"
        value {
          tensor {
            dtype: DT_INT32
            tensor_shape {
            }
            int_val: 1
          }
        }
      }
    }
    node {
      name: "conv1d/conv1d/ExpandDims"
      op: "ExpandDims"
      input: "embedding_scope/input_embed"
      input: "conv1d/conv1d/ExpandDims/dim"
      attr {
        key: "T"
        value {
          type: DT_FLOAT
        }
      }
      attr {
        key: "_output_shapes"
        value {
          list {
            shape {
              dim {
                size: -1
              }
              dim {
                size: 1
              }
              dim {
                size: 30
              }
              dim {
                size: 128
              }
            }
          }
        }
      }
    }
    node {
      name: "conv1d/conv1d/ExpandDims_1/dim"
      op: "Const"
      attr {
        key: "_output_shapes"
        value {
          list {
            shape {
            }
          }
        }
      }
      attr {
        key: "dtype"
        value {
          type: DT_INT32
        }
      }
      attr {
        key: "value"
        value {
          tensor {
            dtype: DT_INT32
            tensor_shape {
            }
            int_val: 0
          }
        }
      }
    }
    node {
      name: "conv1d/conv1d/ExpandDims_1"
      op: "ExpandDims"
      input: "conv1d/kernel/read"
      input: "conv1d/conv1d/ExpandDims_1/dim"
      attr {
        key: "T"
        value {
          type: DT_FLOAT
        }
      }
      attr {
        key: "_output_shapes"
        value {
          list {
            shape {
              dim {
                size: 1
              }
              dim {
                size: 1
              }
              dim {
                size: 128
              }
              dim {
                size: 100
              }
            }
          }
        }
      }
    }
    node {
      name: "conv1d/conv1d/Conv2D"
      op: "Conv2D"
      input: "conv1d/conv1d/ExpandDims"
      input: "conv1d/conv1d/ExpandDims_1"
      attr {
        key: "T"
        value {
          type: DT_FLOAT
        }
      }
      attr {
        key: "_output_shapes"
        value {
          list {
            shape {
              dim {
                size: -1
              }
              dim {
                size: 1
              }
              dim {
                size: 30
              }
              dim {
                size: 100
              }
            }
          }
        }
      }
      attr {
        key: "padding"
        value {
          s: "VALID"
        }
      }
      attr {
        key: "strides"
        value {
          list {
            i: 1
            i: 1
            i: 1
            i: 1
          }
        }
      }
    }
    node {
      name: "conv1d/conv1d/Squeeze"
      op: "Squeeze"
      input: "conv1d/conv1d/Conv2D"
      attr {
        key: "T"
        value {
          type: DT_FLOAT
        }
      }
      attr {
        key: "_output_shapes"
        value {
          list {
            shape {
              dim {
                size: -1
              }
              dim {
                size: 30
              }
              dim {
                size: 100
              }
            }
          }
        }
      }
      attr {
        key: "squeeze_dims"
        value {
          list {
            i: 1
          }
        }
      }
    }
    node {
      name: "conv1d/BiasAdd"
      op: "BiasAdd"
      input: "conv1d/conv1d/Squeeze"
      input: "conv1d/bias/read"
      attr {
        key: "T"
        value {
          type: DT_FLOAT
        }
      }
      attr {
        key: "_output_shapes"
        value {
          list {
            shape {
              dim {
                size: -1
              }
              dim {
                size: 30
              }
              dim {
                size: 100
              }
            }
          }
        }
      }
    }
    node {
      name: "resnet/residual_block/dilated_causal_conv_1/causal_conv/Pad/paddings"
      op: "Const"
      attr {
        key: "_output_shapes"
        value {
          list {
            shape {
              dim {
                size: 3
              }
              dim {
                size: 2
              }
            }
          }
        }
      }
      attr {
        key: "dtype"
        value {
          type: DT_INT32
        }
      }
      attr {
        key: "value"
        value {
          tensor {
            dtype: DT_INT32
            tensor_shape {
              dim {
                size: 3
              }
              dim {
                size: 2
              }
            }
            tensor_content: "\000\000\000\000\000\000\000\000\001\000\000\000\000\000\000\000\000\000\000\000\000\000\000\000"
          }
        }
      }
    }
    node {
      name: "resnet/residual_block/dilated_causal_conv_1/causal_conv/Pad"
      op: "Pad"
      input: "conv1d/BiasAdd"
      input: "resnet/residual_block/dilated_causal_conv_1/causal_conv/Pad/paddings"
      attr {
        key: "T"
        value {
          type: DT_FLOAT
        }
      }
      attr {
        key: "_output_shapes"
        value {
          list {
            shape {
              dim {
                size: -1
              }
              dim {
                size: 31
              }
              dim {
                size: 100
              }
            }
          }
        }
      }
    }
    node {
      name: "resnet/residual_block/dilated_causal_conv_1/causal_conv/conv1d/kernel/Initializer/random_uniform/shape"
      op: "Const"
      attr {
        key: "_class"
        value {
          list {
            s: "loc:@resnet/residual_block/dilated_causal_conv_1/causal_conv/conv1d/kernel"
          }
        }
      }
      attr {
        key: "_output_shapes"
        value {
          list {
            shape {
              dim {
                size: 3
              }
            }
          }
        }
      }
      attr {
        key: "dtype"
        value {
          type: DT_INT32
        }
      }
      attr {
        key: "value"
        value {
          tensor {
            dtype: DT_INT32
            tensor_shape {
              dim {
                size: 3
              }
            }
            tensor_content: "\002\000\000\000d\000\000\000d\000\000\000"
          }
        }
      }
    }
    node {
      name: "resnet/residual_block/dilated_causal_conv_1/causal_conv/conv1d/kernel/Initializer/random_uniform/min"
      op: "Const"
      attr {
        key: "_class"
        value {
          list {
            s: "loc:@resnet/residual_block/dilated_causal_conv_1/causal_conv/conv1d/kernel"
          }
        }
      }
      attr {
        key: "_output_shapes"
        value {
          list {
            shape {
            }
          }
        }
      }
      attr {
        key: "dtype"
        value {
          type: DT_FLOAT
        }
      }
      attr {
        key: "value"
        value {
          tensor {
            dtype: DT_FLOAT
            tensor_shape {
            }
            float_val: -0.12247448414564133
          }
        }
      }
    }
    node {
      name: "resnet/residual_block/dilated_causal_conv_1/causal_conv/conv1d/kernel/Initializer/random_uniform/max"
      op: "Const"
      attr {
        key: "_class"
        value {
          list {
            s: "loc:@resnet/residual_block/dilated_causal_conv_1/causal_conv/conv1d/kernel"
          }
        }
      }
      attr {
        key: "_output_shapes"
        value {
          list {
            shape {
            }
          }
        }
      }
      attr {
        key: "dtype"
        value {
          type: DT_FLOAT
        }
      }
      attr {
        key: "value"
        value {
          tensor {
            dtype: DT_FLOAT
            tensor_shape {
            }
            float_val: 0.12247448414564133
          }
        }
      }
    }
    node {
      name: "resnet/residual_block/dilated_causal_conv_1/causal_conv/conv1d/kernel/Initializer/random_uniform/RandomUniform"
      op: "RandomUniform"
      input: "resnet/residual_block/dilated_causal_conv_1/causal_conv/conv1d/kernel/Initializer/random_uniform/shape"
      attr {
        key: "T"
        value {
          type: DT_INT32
        }
      }
      attr {
        key: "_class"
        value {
          list {
            s: "loc:@resnet/residual_block/dilated_causal_conv_1/causal_conv/conv1d/kernel"
          }
        }
      }
      attr {
        key: "_output_shapes"
        value {
          list {
            shape {
              dim {
                size: 2
              }
              dim {
                size: 100
              }
              dim {
                size: 100
              }
            }
          }
        }
      }
      attr {
        key: "dtype"
        value {
          type: DT_FLOAT
        }
      }
      attr {
        key: "seed"
        value {
          i: 1234
        }
      }
      attr {
        key: "seed2"
        value {
          i: 60
        }
      }
    }
    node {
      name: "resnet/residual_block/dilated_causal_conv_1/causal_conv/conv1d/kernel/Initializer/random_uniform/sub"
      op: "Sub"
      input: "resnet/residual_block/dilated_causal_conv_1/causal_conv/conv1d/kernel/Initializer/random_uniform/max"
      input: "resnet/residual_block/dilated_causal_conv_1/causal_conv/conv1d/kernel/Initializer/random_uniform/min"
      attr {
        key: "T"
        value {
          type: DT_FLOAT
        }
      }
      attr {
        key: "_class"
        value {
          list {
            s: "loc:@resnet/residual_block/dilated_causal_conv_1/causal_conv/conv1d/kernel"
          }
        }
      }
      attr {
        key: "_output_shapes"
        value {
          list {
            shape {
            }
          }
        }
      }
    }
    node {
      name: "resnet/residual_block/dilated_causal_conv_1/causal_conv/conv1d/kernel/Initializer/random_uniform/mul"
      op: "Mul"
      input: "resnet/residual_block/dilated_causal_conv_1/causal_conv/conv1d/kernel/Initializer/random_uniform/RandomUniform"
      input: "resnet/residual_block/dilated_causal_conv_1/causal_conv/conv1d/kernel/Initializer/random_uniform/sub"
      attr {
        key: "T"
        value {
          type: DT_FLOAT
        }
      }
      attr {
        key: "_class"
        value {
          list {
            s: "loc:@resnet/residual_block/dilated_causal_conv_1/causal_conv/conv1d/kernel"
          }
        }
      }
      attr {
        key: "_output_shapes"
        value {
          list {
            shape {
              dim {
                size: 2
              }
              dim {
                size: 100
              }
              dim {
                size: 100
              }
            }
          }
        }
      }
    }
    node {
      name: "resnet/residual_block/dilated_causal_conv_1/causal_conv/conv1d/kernel/Initializer/random_uniform"
      op: "Add"
      input: "resnet/residual_block/dilated_causal_conv_1/causal_conv/conv1d/kernel/Initializer/random_uniform/mul"
      input: "resnet/residual_block/dilated_causal_conv_1/causal_conv/conv1d/kernel/Initializer/random_uniform/min"
      attr {
        key: "T"
        value {
          type: DT_FLOAT
        }
      }
      attr {
        key: "_class"
        value {
          list {
            s: "loc:@resnet/residual_block/dilated_causal_conv_1/causal_conv/conv1d/kernel"
          }
        }
      }
      attr {
        key: "_output_shapes"
        value {
          list {
            shape {
              dim {
                size: 2
              }
              dim {
                size: 100
              }
              dim {
                size: 100
              }
            }
          }
        }
      }
    }
    node {
      name: "resnet/residual_block/dilated_causal_conv_1/causal_conv/conv1d/kernel"
      op: "VariableV2"
      attr {
        key: "_class"
        value {
          list {
            s: "loc:@resnet/residual_block/dilated_causal_conv_1/causal_conv/conv1d/kernel"
          }
        }
      }
      attr {
        key: "_output_shapes"
        value {
          list {
            shape {
              dim {
                size: 2
              }
              dim {
                size: 100
              }
              dim {
                size: 100
              }
            }
          }
        }
      }
      attr {
        key: "dtype"
        value {
          type: DT_FLOAT
        }
      }
      attr {
        key: "shape"
        value {
          shape {
            dim {
              size: 2
            }
            dim {
              size: 100
            }
            dim {
              size: 100
            }
          }
        }
      }
    }
    node {
      name: "resnet/residual_block/dilated_causal_conv_1/causal_conv/conv1d/kernel/Assign"
      op: "Assign"
      input: "resnet/residual_block/dilated_causal_conv_1/causal_conv/conv1d/kernel"
      input: "resnet/residual_block/dilated_causal_conv_1/causal_conv/conv1d/kernel/Initializer/random_uniform"
      attr {
        key: "T"
        value {
          type: DT_FLOAT
        }
      }
      attr {
        key: "_class"
        value {
          list {
            s: "loc:@resnet/residual_block/dilated_causal_conv_1/causal_conv/conv1d/kernel"
          }
        }
      }
      attr {
        key: "_output_shapes"
        value {
          list {
            shape {
              dim {
                size: 2
              }
              dim {
                size: 100
              }
              dim {
                size: 100
              }
            }
          }
        }
      }
    }
    node {
      name: "resnet/residual_block/dilated_causal_conv_1/causal_conv/conv1d/kernel/read"
      op: "Identity"
      input: "resnet/residual_block/dilated_causal_conv_1/causal_conv/conv1d/kernel"
      attr {
        key: "T"
        value {
          type: DT_FLOAT
        }
      }
      attr {
        key: "_class"
        value {
          list {
            s: "loc:@resnet/residual_block/dilated_causal_conv_1/causal_conv/conv1d/kernel"
          }
        }
      }
      attr {
        key: "_output_shapes"
        value {
          list {
            shape {
              dim {
                size: 2
              }
              dim {
                size: 100
              }
              dim {
                size: 100
              }
            }
          }
        }
      }
    }
    node {
      name: "resnet/residual_block/dilated_causal_conv_1/causal_conv/conv1d/bias/Initializer/zeros"
      op: "Const"
      attr {
        key: "_class"
        value {
          list {
            s: "loc:@resnet/residual_block/dilated_causal_conv_1/causal_conv/conv1d/bias"
          }
        }
      }
      attr {
        key: "_output_shapes"
        value {
          list {
            shape {
              dim {
                size: 100
              }
            }
          }
        }
      }
      attr {
        key: "dtype"
        value {
          type: DT_FLOAT
        }
      }
      attr {
        key: "value"
        value {
          tensor {
            dtype: DT_FLOAT
            tensor_shape {
              dim {
                size: 100
              }
            }
            float_val: 0.0
          }
        }
      }
    }
    node {
      name: "resnet/residual_block/dilated_causal_conv_1/causal_conv/conv1d/bias"
      op: "VariableV2"
      attr {
        key: "_class"
        value {
          list {
            s: "loc:@resnet/residual_block/dilated_causal_conv_1/causal_conv/conv1d/bias"
          }
        }
      }
      attr {
        key: "_output_shapes"
        value {
          list {
            shape {
              dim {
                size: 100
              }
            }
          }
        }
      }
      attr {
        key: "dtype"
        value {
          type: DT_FLOAT
        }
      }
      attr {
        key: "shape"
        value {
          shape {
            dim {
              size: 100
            }
          }
        }
      }
    }
    node {
      name: "resnet/residual_block/dilated_causal_conv_1/causal_conv/conv1d/bias/Assign"
      op: "Assign"
      input: "resnet/residual_block/dilated_causal_conv_1/causal_conv/conv1d/bias"
      input: "resnet/residual_block/dilated_causal_conv_1/causal_conv/conv1d/bias/Initializer/zeros"
      attr {
        key: "T"
        value {
          type: DT_FLOAT
        }
      }
      attr {
        key: "_class"
        value {
          list {
            s: "loc:@resnet/residual_block/dilated_causal_conv_1/causal_conv/conv1d/bias"
          }
        }
      }
      attr {
        key: "_output_shapes"
        value {
          list {
            shape {
              dim {
                size: 100
              }
            }
          }
        }
      }
    }
    node {
      name: "resnet/residual_block/dilated_causal_conv_1/causal_conv/conv1d/bias/read"
      op: "Identity"
      input: "resnet/residual_block/dilated_causal_conv_1/causal_conv/conv1d/bias"
      attr {
        key: "T"
        value {
          type: DT_FLOAT
        }
      }
      attr {
        key: "_class"
        value {
          list {
            s: "loc:@resnet/residual_block/dilated_causal_conv_1/causal_conv/conv1d/bias"
          }
        }
      }
      attr {
        key: "_output_shapes"
        value {
          list {
            shape {
              dim {
                size: 100
              }
            }
          }
        }
      }
    }
    node {
      name: "resnet/residual_block/dilated_causal_conv_1/causal_conv/conv1d/dilation_rate"
      op: "Const"
      attr {
        key: "_output_shapes"
        value {
          list {
            shape {
              dim {
                size: 1
              }
            }
          }
        }
      }
      attr {
        key: "dtype"
        value {
          type: DT_INT32
        }
      }
      attr {
        key: "value"
        value {
          tensor {
            dtype: DT_INT32
            tensor_shape {
              dim {
                size: 1
              }
            }
            int_val: 1
          }
        }
      }
    }
    node {
      name: "resnet/residual_block/dilated_causal_conv_1/causal_conv/conv1d/conv1d/ExpandDims/dim"
      op: "Const"
      attr {
        key: "_output_shapes"
        value {
          list {
            shape {
            }
          }
        }
      }
      attr {
        key: "dtype"
        value {
          type: DT_INT32
        }
      }
      attr {
        key: "value"
        value {
          tensor {
            dtype: DT_INT32
            tensor_shape {
            }
            int_val: 1
          }
        }
      }
    }
    node {
      name: "resnet/residual_block/dilated_causal_conv_1/causal_conv/conv1d/conv1d/ExpandDims"
      op: "ExpandDims"
      input: "resnet/residual_block/dilated_causal_conv_1/causal_conv/Pad"
      input: "resnet/residual_block/dilated_causal_conv_1/causal_conv/conv1d/conv1d/ExpandDims/dim"
      attr {
        key: "T"
        value {
          type: DT_FLOAT
        }
      }
      attr {
        key: "_output_shapes"
        value {
          list {
            shape {
              dim {
                size: -1
              }
              dim {
                size: 1
              }
              dim {
                size: 31
              }
              dim {
                size: 100
              }
            }
          }
        }
      }
    }
    node {
      name: "resnet/residual_block/dilated_causal_conv_1/causal_conv/conv1d/conv1d/ExpandDims_1/dim"
      op: "Const"
      attr {
        key: "_output_shapes"
        value {
          list {
            shape {
            }
          }
        }
      }
      attr {
        key: "dtype"
        value {
          type: DT_INT32
        }
      }
      attr {
        key: "value"
        value {
          tensor {
            dtype: DT_INT32
            tensor_shape {
            }
            int_val: 0
          }
        }
      }
    }
    node {
      name: "resnet/residual_block/dilated_causal_conv_1/causal_conv/conv1d/conv1d/ExpandDims_1"
      op: "ExpandDims"
      input: "resnet/residual_block/dilated_causal_conv_1/causal_conv/conv1d/kernel/read"
      input: "resnet/residual_block/dilated_causal_conv_1/causal_conv/conv1d/conv1d/ExpandDims_1/dim"
      attr {
        key: "T"
        value {
          type: DT_FLOAT
        }
      }
      attr {
        key: "_output_shapes"
        value {
          list {
            shape {
              dim {
                size: 1
              }
              dim {
                size: 2
              }
              dim {
                size: 100
              }
              dim {
                size: 100
              }
            }
          }
        }
      }
    }
    node {
      name: "resnet/residual_block/dilated_causal_conv_1/causal_conv/conv1d/conv1d/Conv2D"
      op: "Conv2D"
      input: "resnet/residual_block/dilated_causal_conv_1/causal_conv/conv1d/conv1d/ExpandDims"
      input: "resnet/residual_block/dilated_causal_conv_1/causal_conv/conv1d/conv1d/ExpandDims_1"
      attr {
        key: "T"
        value {
          type: DT_FLOAT
        }
      }
      attr {
        key: "_output_shapes"
        value {
          list {
            shape {
              dim {
                size: -1
              }
              dim {
                size: 1
              }
              dim {
                size: 30
              }
              dim {
                size: 100
              }
            }
          }
        }
      }
      attr {
        key: "padding"
        value {
          s: "VALID"
        }
      }
      attr {
        key: "strides"
        value {
          list {
            i: 1
            i: 1
            i: 1
            i: 1
          }
        }
      }
    }
    node {
      name: "resnet/residual_block/dilated_causal_conv_1/causal_conv/conv1d/conv1d/Squeeze"
      op: "Squeeze"
      input: "resnet/residual_block/dilated_causal_conv_1/causal_conv/conv1d/conv1d/Conv2D"
      attr {
        key: "T"
        value {
          type: DT_FLOAT
        }
      }
      attr {
        key: "_output_shapes"
        value {
          list {
            shape {
              dim {
                size: -1
              }
              dim {
                size: 30
              }
              dim {
                size: 100
              }
            }
          }
        }
      }
      attr {
        key: "squeeze_dims"
        value {
          list {
            i: 1
          }
        }
      }
    }
    node {
      name: "resnet/residual_block/dilated_causal_conv_1/causal_conv/conv1d/BiasAdd"
      op: "BiasAdd"
      input: "resnet/residual_block/dilated_causal_conv_1/causal_conv/conv1d/conv1d/Squeeze"
      input: "resnet/residual_block/dilated_causal_conv_1/causal_conv/conv1d/bias/read"
      attr {
        key: "T"
        value {
          type: DT_FLOAT
        }
      }
      attr {
        key: "_output_shapes"
        value {
          list {
            shape {
              dim {
                size: -1
              }
              dim {
                size: 30
              }
              dim {
                size: 100
              }
            }
          }
        }
      }
    }
    node {
      name: "resnet/residual_block/layer_norm_1/LayerNorm/beta/Initializer/zeros"
      op: "Const"
      attr {
        key: "_class"
        value {
          list {
            s: "loc:@resnet/residual_block/layer_norm_1/LayerNorm/beta"
          }
        }
      }
      attr {
        key: "_output_shapes"
        value {
          list {
            shape {
              dim {
                size: 100
              }
            }
          }
        }
      }
      attr {
        key: "dtype"
        value {
          type: DT_FLOAT
        }
      }
      attr {
        key: "value"
        value {
          tensor {
            dtype: DT_FLOAT
            tensor_shape {
              dim {
                size: 100
              }
            }
            float_val: 0.0
          }
        }
      }
    }
    node {
      name: "resnet/residual_block/layer_norm_1/LayerNorm/beta"
      op: "VariableV2"
      attr {
        key: "_class"
        value {
          list {
            s: "loc:@resnet/residual_block/layer_norm_1/LayerNorm/beta"
          }
        }
      }
      attr {
        key: "_output_shapes"
        value {
          list {
            shape {
              dim {
                size: 100
              }
            }
          }
        }
      }
      attr {
        key: "dtype"
        value {
          type: DT_FLOAT
        }
      }
      attr {
        key: "shape"
        value {
          shape {
            dim {
              size: 100
            }
          }
        }
      }
    }
    node {
      name: "resnet/residual_block/layer_norm_1/LayerNorm/beta/Assign"
      op: "Assign"
      input: "resnet/residual_block/layer_norm_1/LayerNorm/beta"
      input: "resnet/residual_block/layer_norm_1/LayerNorm/beta/Initializer/zeros"
      attr {
        key: "T"
        value {
          type: DT_FLOAT
        }
      }
      attr {
        key: "_class"
        value {
          list {
            s: "loc:@resnet/residual_block/layer_norm_1/LayerNorm/beta"
          }
        }
      }
      attr {
        key: "_output_shapes"
        value {
          list {
            shape {
              dim {
                size: 100
              }
            }
          }
        }
      }
    }
    node {
      name: "resnet/residual_block/layer_norm_1/LayerNorm/beta/read"
      op: "Identity"
      input: "resnet/residual_block/layer_norm_1/LayerNorm/beta"
      attr {
        key: "T"
        value {
          type: DT_FLOAT
        }
      }
      attr {
        key: "_class"
        value {
          list {
            s: "loc:@resnet/residual_block/layer_norm_1/LayerNorm/beta"
          }
        }
      }
      attr {
        key: "_output_shapes"
        value {
          list {
            shape {
              dim {
                size: 100
              }
            }
          }
        }
      }
    }
    node {
      name: "resnet/residual_block/layer_norm_1/LayerNorm/gamma/Initializer/ones"
      op: "Const"
      attr {
        key: "_class"
        value {
          list {
            s: "loc:@resnet/residual_block/layer_norm_1/LayerNorm/gamma"
          }
        }
      }
      attr {
        key: "_output_shapes"
        value {
          list {
            shape {
              dim {
                size: 100
              }
            }
          }
        }
      }
      attr {
        key: "dtype"
        value {
          type: DT_FLOAT
        }
      }
      attr {
        key: "value"
        value {
          tensor {
            dtype: DT_FLOAT
            tensor_shape {
              dim {
                size: 100
              }
            }
            float_val: 1.0
          }
        }
      }
    }
    node {
      name: "resnet/residual_block/layer_norm_1/LayerNorm/gamma"
      op: "VariableV2"
      attr {
        key: "_class"
        value {
          list {
            s: "loc:@resnet/residual_block/layer_norm_1/LayerNorm/gamma"
          }
        }
      }
      attr {
        key: "_output_shapes"
        value {
          list {
            shape {
              dim {
                size: 100
              }
            }
          }
        }
      }
      attr {
        key: "dtype"
        value {
          type: DT_FLOAT
        }
      }
      attr {
        key: "shape"
        value {
          shape {
            dim {
              size: 100
            }
          }
        }
      }
    }
    node {
      name: "resnet/residual_block/layer_norm_1/LayerNorm/gamma/Assign"
      op: "Assign"
      input: "resnet/residual_block/layer_norm_1/LayerNorm/gamma"
      input: "resnet/residual_block/layer_norm_1/LayerNorm/gamma/Initializer/ones"
      attr {
        key: "T"
        value {
          type: DT_FLOAT
        }
      }
      attr {
        key: "_class"
        value {
          list {
            s: "loc:@resnet/residual_block/layer_norm_1/LayerNorm/gamma"
          }
        }
      }
      attr {
        key: "_output_shapes"
        value {
          list {
            shape {
              dim {
                size: 100
              }
            }
          }
        }
      }
    }
    node {
      name: "resnet/residual_block/layer_norm_1/LayerNorm/gamma/read"
      op: "Identity"
      input: "resnet/residual_block/layer_norm_1/LayerNorm/gamma"
      attr {
        key: "T"
        value {
          type: DT_FLOAT
        }
      }
      attr {
        key: "_class"
        value {
          list {
            s: "loc:@resnet/residual_block/layer_norm_1/LayerNorm/gamma"
          }
        }
      }
      attr {
        key: "_output_shapes"
        value {
          list {
            shape {
              dim {
                size: 100
              }
            }
          }
        }
      }
    }
    node {
      name: "resnet/residual_block/layer_norm_1/LayerNorm/moments/mean/reduction_indices"
      op: "Const"
      attr {
        key: "_output_shapes"
        value {
          list {
            shape {
              dim {
                size: 2
              }
            }
          }
        }
      }
      attr {
        key: "dtype"
        value {
          type: DT_INT32
        }
      }
      attr {
        key: "value"
        value {
          tensor {
            dtype: DT_INT32
            tensor_shape {
              dim {
                size: 2
              }
            }
            tensor_content: "\001\000\000\000\002\000\000\000"
          }
        }
      }
    }
    node {
      name: "resnet/residual_block/layer_norm_1/LayerNorm/moments/mean"
      op: "Mean"
      input: "resnet/residual_block/dilated_causal_conv_1/causal_conv/conv1d/BiasAdd"
      input: "resnet/residual_block/layer_norm_1/LayerNorm/moments/mean/reduction_indices"
      attr {
        key: "T"
        value {
          type: DT_FLOAT
        }
      }
      attr {
        key: "_output_shapes"
        value {
          list {
            shape {
              dim {
                size: -1
              }
              dim {
                size: 1
              }
              dim {
                size: 1
              }
            }
          }
        }
      }
      attr {
        key: "keep_dims"
        value {
          b: true
        }
      }
    }
    node {
      name: "resnet/residual_block/layer_norm_1/LayerNorm/moments/StopGradient"
      op: "StopGradient"
      input: "resnet/residual_block/layer_norm_1/LayerNorm/moments/mean"
      attr {
        key: "T"
        value {
          type: DT_FLOAT
        }
      }
      attr {
        key: "_output_shapes"
        value {
          list {
            shape {
              dim {
                size: -1
              }
              dim {
                size: 1
              }
              dim {
                size: 1
              }
            }
          }
        }
      }
    }
    node {
      name: "resnet/residual_block/layer_norm_1/LayerNorm/moments/SquaredDifference"
      op: "SquaredDifference"
      input: "resnet/residual_block/dilated_causal_conv_1/causal_conv/conv1d/BiasAdd"
      input: "resnet/residual_block/layer_norm_1/LayerNorm/moments/StopGradient"
      attr {
        key: "T"
        value {
          type: DT_FLOAT
        }
      }
      attr {
        key: "_output_shapes"
        value {
          list {
            shape {
              dim {
                size: -1
              }
              dim {
                size: 30
              }
              dim {
                size: 100
              }
            }
          }
        }
      }
    }
    node {
      name: "resnet/residual_block/layer_norm_1/LayerNorm/moments/variance/reduction_indices"
      op: "Const"
      attr {
        key: "_output_shapes"
        value {
          list {
            shape {
              dim {
                size: 2
              }
            }
          }
        }
      }
      attr {
        key: "dtype"
        value {
          type: DT_INT32
        }
      }
      attr {
        key: "value"
        value {
          tensor {
            dtype: DT_INT32
            tensor_shape {
              dim {
                size: 2
              }
            }
            tensor_content: "\001\000\000\000\002\000\000\000"
          }
        }
      }
    }
    node {
      name: "resnet/residual_block/layer_norm_1/LayerNorm/moments/variance"
      op: "Mean"
      input: "resnet/residual_block/layer_norm_1/LayerNorm/moments/SquaredDifference"
      input: "resnet/residual_block/layer_norm_1/LayerNorm/moments/variance/reduction_indices"
      attr {
        key: "T"
        value {
          type: DT_FLOAT
        }
      }
      attr {
        key: "_output_shapes"
        value {
          list {
            shape {
              dim {
                size: -1
              }
              dim {
                size: 1
              }
              dim {
                size: 1
              }
            }
          }
        }
      }
      attr {
        key: "keep_dims"
        value {
          b: true
        }
      }
    }
    node {
      name: "resnet/residual_block/layer_norm_1/LayerNorm/batchnorm/add/y"
      op: "Const"
      attr {
        key: "_output_shapes"
        value {
          list {
            shape {
            }
          }
        }
      }
      attr {
        key: "dtype"
        value {
          type: DT_FLOAT
        }
      }
      attr {
        key: "value"
        value {
          tensor {
            dtype: DT_FLOAT
            tensor_shape {
            }
            float_val: 9.999999960041972e-13
          }
        }
      }
    }
    node {
      name: "resnet/residual_block/layer_norm_1/LayerNorm/batchnorm/add"
      op: "Add"
      input: "resnet/residual_block/layer_norm_1/LayerNorm/moments/variance"
      input: "resnet/residual_block/layer_norm_1/LayerNorm/batchnorm/add/y"
      attr {
        key: "T"
        value {
          type: DT_FLOAT
        }
      }
      attr {
        key: "_output_shapes"
        value {
          list {
            shape {
              dim {
                size: -1
              }
              dim {
                size: 1
              }
              dim {
                size: 1
              }
            }
          }
        }
      }
    }
    node {
      name: "resnet/residual_block/layer_norm_1/LayerNorm/batchnorm/Rsqrt"
      op: "Rsqrt"
      input: "resnet/residual_block/layer_norm_1/LayerNorm/batchnorm/add"
      attr {
        key: "T"
        value {
          type: DT_FLOAT
        }
      }
      attr {
        key: "_output_shapes"
        value {
          list {
            shape {
              dim {
                size: -1
              }
              dim {
                size: 1
              }
              dim {
                size: 1
              }
            }
          }
        }
      }
    }
    node {
      name: "resnet/residual_block/layer_norm_1/LayerNorm/batchnorm/mul"
      op: "Mul"
      input: "resnet/residual_block/layer_norm_1/LayerNorm/batchnorm/Rsqrt"
      input: "resnet/residual_block/layer_norm_1/LayerNorm/gamma/read"
      attr {
        key: "T"
        value {
          type: DT_FLOAT
        }
      }
      attr {
        key: "_output_shapes"
        value {
          list {
            shape {
              dim {
                size: -1
              }
              dim {
                size: 1
              }
              dim {
                size: 100
              }
            }
          }
        }
      }
    }
    node {
      name: "resnet/residual_block/layer_norm_1/LayerNorm/batchnorm/mul_1"
      op: "Mul"
      input: "resnet/residual_block/dilated_causal_conv_1/causal_conv/conv1d/BiasAdd"
      input: "resnet/residual_block/layer_norm_1/LayerNorm/batchnorm/mul"
      attr {
        key: "T"
        value {
          type: DT_FLOAT
        }
      }
      attr {
        key: "_output_shapes"
        value {
          list {
            shape {
              dim {
                size: -1
              }
              dim {
                size: 30
              }
              dim {
                size: 100
              }
            }
          }
        }
      }
    }
    node {
      name: "resnet/residual_block/layer_norm_1/LayerNorm/batchnorm/mul_2"
      op: "Mul"
      input: "resnet/residual_block/layer_norm_1/LayerNorm/moments/mean"
      input: "resnet/residual_block/layer_norm_1/LayerNorm/batchnorm/mul"
      attr {
        key: "T"
        value {
          type: DT_FLOAT
        }
      }
      attr {
        key: "_output_shapes"
        value {
          list {
            shape {
              dim {
                size: -1
              }
              dim {
                size: 1
              }
              dim {
                size: 100
              }
            }
          }
        }
      }
    }
    node {
      name: "resnet/residual_block/layer_norm_1/LayerNorm/batchnorm/sub"
      op: "Sub"
      input: "resnet/residual_block/layer_norm_1/LayerNorm/beta/read"
      input: "resnet/residual_block/layer_norm_1/LayerNorm/batchnorm/mul_2"
      attr {
        key: "T"
        value {
          type: DT_FLOAT
        }
      }
      attr {
        key: "_output_shapes"
        value {
          list {
            shape {
              dim {
                size: -1
              }
              dim {
                size: 1
              }
              dim {
                size: 100
              }
            }
          }
        }
      }
    }
    node {
      name: "resnet/residual_block/layer_norm_1/LayerNorm/batchnorm/add_1"
      op: "Add"
      input: "resnet/residual_block/layer_norm_1/LayerNorm/batchnorm/mul_1"
      input: "resnet/residual_block/layer_norm_1/LayerNorm/batchnorm/sub"
      attr {
        key: "T"
        value {
          type: DT_FLOAT
        }
      }
      attr {
        key: "_output_shapes"
        value {
          list {
            shape {
              dim {
                size: -1
              }
              dim {
                size: 30
              }
              dim {
                size: 100
              }
            }
          }
        }
      }
    }
    node {
      name: "resnet/residual_block/activation_1/Relu"
      op: "Relu"
      input: "resnet/residual_block/layer_norm_1/LayerNorm/batchnorm/add_1"
      attr {
        key: "T"
        value {
          type: DT_FLOAT
        }
      }
      attr {
        key: "_output_shapes"
        value {
          list {
            shape {
              dim {
                size: -1
              }
              dim {
                size: 30
              }
              dim {
                size: 100
              }
            }
          }
        }
      }
    }
    node {
      name: "resnet/residual_block/dropout_1/Dropout/dropout_1/keep_prob"
      op: "Const"
      attr {
        key: "_output_shapes"
        value {
          list {
            shape {
            }
          }
        }
      }
      attr {
        key: "dtype"
        value {
          type: DT_FLOAT
        }
      }
      attr {
        key: "value"
        value {
          tensor {
            dtype: DT_FLOAT
            tensor_shape {
            }
            float_val: 0.20000000298023224
          }
        }
      }
    }
    node {
      name: "resnet/residual_block/dropout_1/Dropout/dropout_1/random_uniform/shape"
      op: "Const"
      attr {
        key: "_output_shapes"
        value {
          list {
            shape {
              dim {
                size: 3
              }
            }
          }
        }
      }
      attr {
        key: "dtype"
        value {
          type: DT_INT32
        }
      }
      attr {
        key: "value"
        value {
          tensor {
            dtype: DT_INT32
            tensor_shape {
              dim {
                size: 3
              }
            }
            tensor_content: "\001\000\000\000\001\000\000\000d\000\000\000"
          }
        }
      }
    }
    node {
      name: "resnet/residual_block/dropout_1/Dropout/dropout_1/random_uniform/min"
      op: "Const"
      attr {
        key: "_output_shapes"
        value {
          list {
            shape {
            }
          }
        }
      }
      attr {
        key: "dtype"
        value {
          type: DT_FLOAT
        }
      }
      attr {
        key: "value"
        value {
          tensor {
            dtype: DT_FLOAT
            tensor_shape {
            }
            float_val: 0.0
          }
        }
      }
    }
    node {
      name: "resnet/residual_block/dropout_1/Dropout/dropout_1/random_uniform/max"
      op: "Const"
      attr {
        key: "_output_shapes"
        value {
          list {
            shape {
            }
          }
        }
      }
      attr {
        key: "dtype"
        value {
          type: DT_FLOAT
        }
      }
      attr {
        key: "value"
        value {
          tensor {
            dtype: DT_FLOAT
            tensor_shape {
            }
            float_val: 1.0
          }
        }
      }
    }
    node {
      name: "resnet/residual_block/dropout_1/Dropout/dropout_1/random_uniform/RandomUniform"
      op: "RandomUniform"
      input: "resnet/residual_block/dropout_1/Dropout/dropout_1/random_uniform/shape"
      attr {
        key: "T"
        value {
          type: DT_INT32
        }
      }
      attr {
        key: "_output_shapes"
        value {
          list {
            shape {
              dim {
                size: 1
              }
              dim {
                size: 1
              }
              dim {
                size: 100
              }
            }
          }
        }
      }
      attr {
        key: "dtype"
        value {
          type: DT_FLOAT
        }
      }
      attr {
        key: "seed"
        value {
          i: 1234
        }
      }
      attr {
        key: "seed2"
        value {
          i: 106
        }
      }
    }
    node {
      name: "resnet/residual_block/dropout_1/Dropout/dropout_1/random_uniform/sub"
      op: "Sub"
      input: "resnet/residual_block/dropout_1/Dropout/dropout_1/random_uniform/max"
      input: "resnet/residual_block/dropout_1/Dropout/dropout_1/random_uniform/min"
      attr {
        key: "T"
        value {
          type: DT_FLOAT
        }
      }
      attr {
        key: "_output_shapes"
        value {
          list {
            shape {
            }
          }
        }
      }
    }
    node {
      name: "resnet/residual_block/dropout_1/Dropout/dropout_1/random_uniform/mul"
      op: "Mul"
      input: "resnet/residual_block/dropout_1/Dropout/dropout_1/random_uniform/RandomUniform"
      input: "resnet/residual_block/dropout_1/Dropout/dropout_1/random_uniform/sub"
      attr {
        key: "T"
        value {
          type: DT_FLOAT
        }
      }
      attr {
        key: "_output_shapes"
        value {
          list {
            shape {
              dim {
                size: 1
              }
              dim {
                size: 1
              }
              dim {
                size: 100
              }
            }
          }
        }
      }
    }
    node {
      name: "resnet/residual_block/dropout_1/Dropout/dropout_1/random_uniform"
      op: "Add"
      input: "resnet/residual_block/dropout_1/Dropout/dropout_1/random_uniform/mul"
      input: "resnet/residual_block/dropout_1/Dropout/dropout_1/random_uniform/min"
      attr {
        key: "T"
        value {
          type: DT_FLOAT
        }
      }
      attr {
        key: "_output_shapes"
        value {
          list {
            shape {
              dim {
                size: 1
              }
              dim {
                size: 1
              }
              dim {
                size: 100
              }
            }
          }
        }
      }
    }
    node {
      name: "resnet/residual_block/dropout_1/Dropout/dropout_1/add"
      op: "Add"
      input: "resnet/residual_block/dropout_1/Dropout/dropout_1/keep_prob"
      input: "resnet/residual_block/dropout_1/Dropout/dropout_1/random_uniform"
      attr {
        key: "T"
        value {
          type: DT_FLOAT
        }
      }
      attr {
        key: "_output_shapes"
        value {
          list {
            shape {
              dim {
                size: 1
              }
              dim {
                size: 1
              }
              dim {
                size: 100
              }
            }
          }
        }
      }
    }
    node {
      name: "resnet/residual_block/dropout_1/Dropout/dropout_1/Floor"
      op: "Floor"
      input: "resnet/residual_block/dropout_1/Dropout/dropout_1/add"
      attr {
        key: "T"
        value {
          type: DT_FLOAT
        }
      }
      attr {
        key: "_output_shapes"
        value {
          list {
            shape {
              dim {
                size: 1
              }
              dim {
                size: 1
              }
              dim {
                size: 100
              }
            }
          }
        }
      }
    }
    node {
      name: "resnet/residual_block/dropout_1/Dropout/dropout_1/div"
      op: "RealDiv"
      input: "resnet/residual_block/activation_1/Relu"
      input: "resnet/residual_block/dropout_1/Dropout/dropout_1/keep_prob"
      attr {
        key: "T"
        value {
          type: DT_FLOAT
        }
      }
      attr {
        key: "_output_shapes"
        value {
          list {
            shape {
              dim {
                size: -1
              }
              dim {
                size: 30
              }
              dim {
                size: 100
              }
            }
          }
        }
      }
    }
    node {
      name: "resnet/residual_block/dropout_1/Dropout/dropout_1/mul"
      op: "Mul"
      input: "resnet/residual_block/dropout_1/Dropout/dropout_1/div"
      input: "resnet/residual_block/dropout_1/Dropout/dropout_1/Floor"
      attr {
        key: "T"
        value {
          type: DT_FLOAT
        }
      }
      attr {
        key: "_output_shapes"
        value {
          list {
            shape {
              dim {
                size: -1
              }
              dim {
                size: 30
              }
              dim {
                size: 100
              }
            }
          }
        }
      }
    }
    node {
      name: "resnet/residual_block/dilated_causal_conv_2/causal_conv/Pad/paddings"
      op: "Const"
      attr {
        key: "_output_shapes"
        value {
          list {
            shape {
              dim {
                size: 3
              }
              dim {
                size: 2
              }
            }
          }
        }
      }
      attr {
        key: "dtype"
        value {
          type: DT_INT32
        }
      }
      attr {
        key: "value"
        value {
          tensor {
            dtype: DT_INT32
            tensor_shape {
              dim {
                size: 3
              }
              dim {
                size: 2
              }
            }
            tensor_content: "\000\000\000\000\000\000\000\000\001\000\000\000\000\000\000\000\000\000\000\000\000\000\000\000"
          }
        }
      }
    }
    node {
      name: "resnet/residual_block/dilated_causal_conv_2/causal_conv/Pad"
      op: "Pad"
      input: "resnet/residual_block/dropout_1/Dropout/dropout_1/mul"
      input: "resnet/residual_block/dilated_causal_conv_2/causal_conv/Pad/paddings"
      attr {
        key: "T"
        value {
          type: DT_FLOAT
        }
      }
      attr {
        key: "_output_shapes"
        value {
          list {
            shape {
              dim {
                size: -1
              }
              dim {
                size: 31
              }
              dim {
                size: 100
              }
            }
          }
        }
      }
    }
    node {
      name: "resnet/residual_block/dilated_causal_conv_2/causal_conv/conv1d/kernel/Initializer/random_uniform/shape"
      op: "Const"
      attr {
        key: "_class"
        value {
          list {
            s: "loc:@resnet/residual_block/dilated_causal_conv_2/causal_conv/conv1d/kernel"
          }
        }
      }
      attr {
        key: "_output_shapes"
        value {
          list {
            shape {
              dim {
                size: 3
              }
            }
          }
        }
      }
      attr {
        key: "dtype"
        value {
          type: DT_INT32
        }
      }
      attr {
        key: "value"
        value {
          tensor {
            dtype: DT_INT32
            tensor_shape {
              dim {
                size: 3
              }
            }
            tensor_content: "\002\000\000\000d\000\000\000d\000\000\000"
          }
        }
      }
    }
    node {
      name: "resnet/residual_block/dilated_causal_conv_2/causal_conv/conv1d/kernel/Initializer/random_uniform/min"
      op: "Const"
      attr {
        key: "_class"
        value {
          list {
            s: "loc:@resnet/residual_block/dilated_causal_conv_2/causal_conv/conv1d/kernel"
          }
        }
      }
      attr {
        key: "_output_shapes"
        value {
          list {
            shape {
            }
          }
        }
      }
      attr {
        key: "dtype"
        value {
          type: DT_FLOAT
        }
      }
      attr {
        key: "value"
        value {
          tensor {
            dtype: DT_FLOAT
            tensor_shape {
            }
            float_val: -0.12247448414564133
          }
        }
      }
    }
    node {
      name: "resnet/residual_block/dilated_causal_conv_2/causal_conv/conv1d/kernel/Initializer/random_uniform/max"
      op: "Const"
      attr {
        key: "_class"
        value {
          list {
            s: "loc:@resnet/residual_block/dilated_causal_conv_2/causal_conv/conv1d/kernel"
          }
        }
      }
      attr {
        key: "_output_shapes"
        value {
          list {
            shape {
            }
          }
        }
      }
      attr {
        key: "dtype"
        value {
          type: DT_FLOAT
        }
      }
      attr {
        key: "value"
        value {
          tensor {
            dtype: DT_FLOAT
            tensor_shape {
            }
            float_val: 0.12247448414564133
          }
        }
      }
    }
    node {
      name: "resnet/residual_block/dilated_causal_conv_2/causal_conv/conv1d/kernel/Initializer/random_uniform/RandomUniform"
      op: "RandomUniform"
      input: "resnet/residual_block/dilated_causal_conv_2/causal_conv/conv1d/kernel/Initializer/random_uniform/shape"
      attr {
        key: "T"
        value {
          type: DT_INT32
        }
      }
      attr {
        key: "_class"
        value {
          list {
            s: "loc:@resnet/residual_block/dilated_causal_conv_2/causal_conv/conv1d/kernel"
          }
        }
      }
      attr {
        key: "_output_shapes"
        value {
          list {
            shape {
              dim {
                size: 2
              }
              dim {
                size: 100
              }
              dim {
                size: 100
              }
            }
          }
        }
      }
      attr {
        key: "dtype"
        value {
          type: DT_FLOAT
        }
      }
      attr {
        key: "seed"
        value {
          i: 1234
        }
      }
      attr {
        key: "seed2"
        value {
          i: 119
        }
      }
    }
    node {
      name: "resnet/residual_block/dilated_causal_conv_2/causal_conv/conv1d/kernel/Initializer/random_uniform/sub"
      op: "Sub"
      input: "resnet/residual_block/dilated_causal_conv_2/causal_conv/conv1d/kernel/Initializer/random_uniform/max"
      input: "resnet/residual_block/dilated_causal_conv_2/causal_conv/conv1d/kernel/Initializer/random_uniform/min"
      attr {
        key: "T"
        value {
          type: DT_FLOAT
        }
      }
      attr {
        key: "_class"
        value {
          list {
            s: "loc:@resnet/residual_block/dilated_causal_conv_2/causal_conv/conv1d/kernel"
          }
        }
      }
      attr {
        key: "_output_shapes"
        value {
          list {
            shape {
            }
          }
        }
      }
    }
    node {
      name: "resnet/residual_block/dilated_causal_conv_2/causal_conv/conv1d/kernel/Initializer/random_uniform/mul"
      op: "Mul"
      input: "resnet/residual_block/dilated_causal_conv_2/causal_conv/conv1d/kernel/Initializer/random_uniform/RandomUniform"
      input: "resnet/residual_block/dilated_causal_conv_2/causal_conv/conv1d/kernel/Initializer/random_uniform/sub"
      attr {
        key: "T"
        value {
          type: DT_FLOAT
        }
      }
      attr {
        key: "_class"
        value {
          list {
            s: "loc:@resnet/residual_block/dilated_causal_conv_2/causal_conv/conv1d/kernel"
          }
        }
      }
      attr {
        key: "_output_shapes"
        value {
          list {
            shape {
              dim {
                size: 2
              }
              dim {
                size: 100
              }
              dim {
                size: 100
              }
            }
          }
        }
      }
    }
    node {
      name: "resnet/residual_block/dilated_causal_conv_2/causal_conv/conv1d/kernel/Initializer/random_uniform"
      op: "Add"
      input: "resnet/residual_block/dilated_causal_conv_2/causal_conv/conv1d/kernel/Initializer/random_uniform/mul"
      input: "resnet/residual_block/dilated_causal_conv_2/causal_conv/conv1d/kernel/Initializer/random_uniform/min"
      attr {
        key: "T"
        value {
          type: DT_FLOAT
        }
      }
      attr {
        key: "_class"
        value {
          list {
            s: "loc:@resnet/residual_block/dilated_causal_conv_2/causal_conv/conv1d/kernel"
          }
        }
      }
      attr {
        key: "_output_shapes"
        value {
          list {
            shape {
              dim {
                size: 2
              }
              dim {
                size: 100
              }
              dim {
                size: 100
              }
            }
          }
        }
      }
    }
    node {
      name: "resnet/residual_block/dilated_causal_conv_2/causal_conv/conv1d/kernel"
      op: "VariableV2"
      attr {
        key: "_class"
        value {
          list {
            s: "loc:@resnet/residual_block/dilated_causal_conv_2/causal_conv/conv1d/kernel"
          }
        }
      }
      attr {
        key: "_output_shapes"
        value {
          list {
            shape {
              dim {
                size: 2
              }
              dim {
                size: 100
              }
              dim {
                size: 100
              }
            }
          }
        }
      }
      attr {
        key: "dtype"
        value {
          type: DT_FLOAT
        }
      }
      attr {
        key: "shape"
        value {
          shape {
            dim {
              size: 2
            }
            dim {
              size: 100
            }
            dim {
              size: 100
            }
          }
        }
      }
    }
    node {
      name: "resnet/residual_block/dilated_causal_conv_2/causal_conv/conv1d/kernel/Assign"
      op: "Assign"
      input: "resnet/residual_block/dilated_causal_conv_2/causal_conv/conv1d/kernel"
      input: "resnet/residual_block/dilated_causal_conv_2/causal_conv/conv1d/kernel/Initializer/random_uniform"
      attr {
        key: "T"
        value {
          type: DT_FLOAT
        }
      }
      attr {
        key: "_class"
        value {
          list {
            s: "loc:@resnet/residual_block/dilated_causal_conv_2/causal_conv/conv1d/kernel"
          }
        }
      }
      attr {
        key: "_output_shapes"
        value {
          list {
            shape {
              dim {
                size: 2
              }
              dim {
                size: 100
              }
              dim {
                size: 100
              }
            }
          }
        }
      }
    }
    node {
      name: "resnet/residual_block/dilated_causal_conv_2/causal_conv/conv1d/kernel/read"
      op: "Identity"
      input: "resnet/residual_block/dilated_causal_conv_2/causal_conv/conv1d/kernel"
      attr {
        key: "T"
        value {
          type: DT_FLOAT
        }
      }
      attr {
        key: "_class"
        value {
          list {
            s: "loc:@resnet/residual_block/dilated_causal_conv_2/causal_conv/conv1d/kernel"
          }
        }
      }
      attr {
        key: "_output_shapes"
        value {
          list {
            shape {
              dim {
                size: 2
              }
              dim {
                size: 100
              }
              dim {
                size: 100
              }
            }
          }
        }
      }
    }
    node {
      name: "resnet/residual_block/dilated_causal_conv_2/causal_conv/conv1d/bias/Initializer/zeros"
      op: "Const"
      attr {
        key: "_class"
        value {
          list {
            s: "loc:@resnet/residual_block/dilated_causal_conv_2/causal_conv/conv1d/bias"
          }
        }
      }
      attr {
        key: "_output_shapes"
        value {
          list {
            shape {
              dim {
                size: 100
              }
            }
          }
        }
      }
      attr {
        key: "dtype"
        value {
          type: DT_FLOAT
        }
      }
      attr {
        key: "value"
        value {
          tensor {
            dtype: DT_FLOAT
            tensor_shape {
              dim {
                size: 100
              }
            }
            float_val: 0.0
          }
        }
      }
    }
    node {
      name: "resnet/residual_block/dilated_causal_conv_2/causal_conv/conv1d/bias"
      op: "VariableV2"
      attr {
        key: "_class"
        value {
          list {
            s: "loc:@resnet/residual_block/dilated_causal_conv_2/causal_conv/conv1d/bias"
          }
        }
      }
      attr {
        key: "_output_shapes"
        value {
          list {
            shape {
              dim {
                size: 100
              }
            }
          }
        }
      }
      attr {
        key: "dtype"
        value {
          type: DT_FLOAT
        }
      }
      attr {
        key: "shape"
        value {
          shape {
            dim {
              size: 100
            }
          }
        }
      }
    }
    node {
      name: "resnet/residual_block/dilated_causal_conv_2/causal_conv/conv1d/bias/Assign"
      op: "Assign"
      input: "resnet/residual_block/dilated_causal_conv_2/causal_conv/conv1d/bias"
      input: "resnet/residual_block/dilated_causal_conv_2/causal_conv/conv1d/bias/Initializer/zeros"
      attr {
        key: "T"
        value {
          type: DT_FLOAT
        }
      }
      attr {
        key: "_class"
        value {
          list {
            s: "loc:@resnet/residual_block/dilated_causal_conv_2/causal_conv/conv1d/bias"
          }
        }
      }
      attr {
        key: "_output_shapes"
        value {
          list {
            shape {
              dim {
                size: 100
              }
            }
          }
        }
      }
    }
    node {
      name: "resnet/residual_block/dilated_causal_conv_2/causal_conv/conv1d/bias/read"
      op: "Identity"
      input: "resnet/residual_block/dilated_causal_conv_2/causal_conv/conv1d/bias"
      attr {
        key: "T"
        value {
          type: DT_FLOAT
        }
      }
      attr {
        key: "_class"
        value {
          list {
            s: "loc:@resnet/residual_block/dilated_causal_conv_2/causal_conv/conv1d/bias"
          }
        }
      }
      attr {
        key: "_output_shapes"
        value {
          list {
            shape {
              dim {
                size: 100
              }
            }
          }
        }
      }
    }
    node {
      name: "resnet/residual_block/dilated_causal_conv_2/causal_conv/conv1d/dilation_rate"
      op: "Const"
      attr {
        key: "_output_shapes"
        value {
          list {
            shape {
              dim {
                size: 1
              }
            }
          }
        }
      }
      attr {
        key: "dtype"
        value {
          type: DT_INT32
        }
      }
      attr {
        key: "value"
        value {
          tensor {
            dtype: DT_INT32
            tensor_shape {
              dim {
                size: 1
              }
            }
            int_val: 1
          }
        }
      }
    }
    node {
      name: "resnet/residual_block/dilated_causal_conv_2/causal_conv/conv1d/conv1d/ExpandDims/dim"
      op: "Const"
      attr {
        key: "_output_shapes"
        value {
          list {
            shape {
            }
          }
        }
      }
      attr {
        key: "dtype"
        value {
          type: DT_INT32
        }
      }
      attr {
        key: "value"
        value {
          tensor {
            dtype: DT_INT32
            tensor_shape {
            }
            int_val: 1
          }
        }
      }
    }
    node {
      name: "resnet/residual_block/dilated_causal_conv_2/causal_conv/conv1d/conv1d/ExpandDims"
      op: "ExpandDims"
      input: "resnet/residual_block/dilated_causal_conv_2/causal_conv/Pad"
      input: "resnet/residual_block/dilated_causal_conv_2/causal_conv/conv1d/conv1d/ExpandDims/dim"
      attr {
        key: "T"
        value {
          type: DT_FLOAT
        }
      }
      attr {
        key: "_output_shapes"
        value {
          list {
            shape {
              dim {
                size: -1
              }
              dim {
                size: 1
              }
              dim {
                size: 31
              }
              dim {
                size: 100
              }
            }
          }
        }
      }
    }
    node {
      name: "resnet/residual_block/dilated_causal_conv_2/causal_conv/conv1d/conv1d/ExpandDims_1/dim"
      op: "Const"
      attr {
        key: "_output_shapes"
        value {
          list {
            shape {
            }
          }
        }
      }
      attr {
        key: "dtype"
        value {
          type: DT_INT32
        }
      }
      attr {
        key: "value"
        value {
          tensor {
            dtype: DT_INT32
            tensor_shape {
            }
            int_val: 0
          }
        }
      }
    }
    node {
      name: "resnet/residual_block/dilated_causal_conv_2/causal_conv/conv1d/conv1d/ExpandDims_1"
      op: "ExpandDims"
      input: "resnet/residual_block/dilated_causal_conv_2/causal_conv/conv1d/kernel/read"
      input: "resnet/residual_block/dilated_causal_conv_2/causal_conv/conv1d/conv1d/ExpandDims_1/dim"
      attr {
        key: "T"
        value {
          type: DT_FLOAT
        }
      }
      attr {
        key: "_output_shapes"
        value {
          list {
            shape {
              dim {
                size: 1
              }
              dim {
                size: 2
              }
              dim {
                size: 100
              }
              dim {
                size: 100
              }
            }
          }
        }
      }
    }
    node {
      name: "resnet/residual_block/dilated_causal_conv_2/causal_conv/conv1d/conv1d/Conv2D"
      op: "Conv2D"
      input: "resnet/residual_block/dilated_causal_conv_2/causal_conv/conv1d/conv1d/ExpandDims"
      input: "resnet/residual_block/dilated_causal_conv_2/causal_conv/conv1d/conv1d/ExpandDims_1"
      attr {
        key: "T"
        value {
          type: DT_FLOAT
        }
      }
      attr {
        key: "_output_shapes"
        value {
          list {
            shape {
              dim {
                size: -1
              }
              dim {
                size: 1
              }
              dim {
                size: 30
              }
              dim {
                size: 100
              }
            }
          }
        }
      }
      attr {
        key: "padding"
        value {
          s: "VALID"
        }
      }
      attr {
        key: "strides"
        value {
          list {
            i: 1
            i: 1
            i: 1
            i: 1
          }
        }
      }
    }
    node {
      name: "resnet/residual_block/dilated_causal_conv_2/causal_conv/conv1d/conv1d/Squeeze"
      op: "Squeeze"
      input: "resnet/residual_block/dilated_causal_conv_2/causal_conv/conv1d/conv1d/Conv2D"
      attr {
        key: "T"
        value {
          type: DT_FLOAT
        }
      }
      attr {
        key: "_output_shapes"
        value {
          list {
            shape {
              dim {
                size: -1
              }
              dim {
                size: 30
              }
              dim {
                size: 100
              }
            }
          }
        }
      }
      attr {
        key: "squeeze_dims"
        value {
          list {
            i: 1
          }
        }
      }
    }
    node {
      name: "resnet/residual_block/dilated_causal_conv_2/causal_conv/conv1d/BiasAdd"
      op: "BiasAdd"
      input: "resnet/residual_block/dilated_causal_conv_2/causal_conv/conv1d/conv1d/Squeeze"
      input: "resnet/residual_block/dilated_causal_conv_2/causal_conv/conv1d/bias/read"
      attr {
        key: "T"
        value {
          type: DT_FLOAT
        }
      }
      attr {
        key: "_output_shapes"
        value {
          list {
            shape {
              dim {
                size: -1
              }
              dim {
                size: 30
              }
              dim {
                size: 100
              }
            }
          }
        }
      }
    }
    node {
      name: "resnet/residual_block/layer_norm_2/LayerNorm/beta/Initializer/zeros"
      op: "Const"
      attr {
        key: "_class"
        value {
          list {
            s: "loc:@resnet/residual_block/layer_norm_2/LayerNorm/beta"
          }
        }
      }
      attr {
        key: "_output_shapes"
        value {
          list {
            shape {
              dim {
                size: 100
              }
            }
          }
        }
      }
      attr {
        key: "dtype"
        value {
          type: DT_FLOAT
        }
      }
      attr {
        key: "value"
        value {
          tensor {
            dtype: DT_FLOAT
            tensor_shape {
              dim {
                size: 100
              }
            }
            float_val: 0.0
          }
        }
      }
    }
    node {
      name: "resnet/residual_block/layer_norm_2/LayerNorm/beta"
      op: "VariableV2"
      attr {
        key: "_class"
        value {
          list {
            s: "loc:@resnet/residual_block/layer_norm_2/LayerNorm/beta"
          }
        }
      }
      attr {
        key: "_output_shapes"
        value {
          list {
            shape {
              dim {
                size: 100
              }
            }
          }
        }
      }
      attr {
        key: "dtype"
        value {
          type: DT_FLOAT
        }
      }
      attr {
        key: "shape"
        value {
          shape {
            dim {
              size: 100
            }
          }
        }
      }
    }
    node {
      name: "resnet/residual_block/layer_norm_2/LayerNorm/beta/Assign"
      op: "Assign"
      input: "resnet/residual_block/layer_norm_2/LayerNorm/beta"
      input: "resnet/residual_block/layer_norm_2/LayerNorm/beta/Initializer/zeros"
      attr {
        key: "T"
        value {
          type: DT_FLOAT
        }
      }
      attr {
        key: "_class"
        value {
          list {
            s: "loc:@resnet/residual_block/layer_norm_2/LayerNorm/beta"
          }
        }
      }
      attr {
        key: "_output_shapes"
        value {
          list {
            shape {
              dim {
                size: 100
              }
            }
          }
        }
      }
    }
    node {
      name: "resnet/residual_block/layer_norm_2/LayerNorm/beta/read"
      op: "Identity"
      input: "resnet/residual_block/layer_norm_2/LayerNorm/beta"
      attr {
        key: "T"
        value {
          type: DT_FLOAT
        }
      }
      attr {
        key: "_class"
        value {
          list {
            s: "loc:@resnet/residual_block/layer_norm_2/LayerNorm/beta"
          }
        }
      }
      attr {
        key: "_output_shapes"
        value {
          list {
            shape {
              dim {
                size: 100
              }
            }
          }
        }
      }
    }
    node {
      name: "resnet/residual_block/layer_norm_2/LayerNorm/gamma/Initializer/ones"
      op: "Const"
      attr {
        key: "_class"
        value {
          list {
            s: "loc:@resnet/residual_block/layer_norm_2/LayerNorm/gamma"
          }
        }
      }
      attr {
        key: "_output_shapes"
        value {
          list {
            shape {
              dim {
                size: 100
              }
            }
          }
        }
      }
      attr {
        key: "dtype"
        value {
          type: DT_FLOAT
        }
      }
      attr {
        key: "value"
        value {
          tensor {
            dtype: DT_FLOAT
            tensor_shape {
              dim {
                size: 100
              }
            }
            float_val: 1.0
          }
        }
      }
    }
    node {
      name: "resnet/residual_block/layer_norm_2/LayerNorm/gamma"
      op: "VariableV2"
      attr {
        key: "_class"
        value {
          list {
            s: "loc:@resnet/residual_block/layer_norm_2/LayerNorm/gamma"
          }
        }
      }
      attr {
        key: "_output_shapes"
        value {
          list {
            shape {
              dim {
                size: 100
              }
            }
          }
        }
      }
      attr {
        key: "dtype"
        value {
          type: DT_FLOAT
        }
      }
      attr {
        key: "shape"
        value {
          shape {
            dim {
              size: 100
            }
          }
        }
      }
    }
    node {
      name: "resnet/residual_block/layer_norm_2/LayerNorm/gamma/Assign"
      op: "Assign"
      input: "resnet/residual_block/layer_norm_2/LayerNorm/gamma"
      input: "resnet/residual_block/layer_norm_2/LayerNorm/gamma/Initializer/ones"
      attr {
        key: "T"
        value {
          type: DT_FLOAT
        }
      }
      attr {
        key: "_class"
        value {
          list {
            s: "loc:@resnet/residual_block/layer_norm_2/LayerNorm/gamma"
          }
        }
      }
      attr {
        key: "_output_shapes"
        value {
          list {
            shape {
              dim {
                size: 100
              }
            }
          }
        }
      }
    }
    node {
      name: "resnet/residual_block/layer_norm_2/LayerNorm/gamma/read"
      op: "Identity"
      input: "resnet/residual_block/layer_norm_2/LayerNorm/gamma"
      attr {
        key: "T"
        value {
          type: DT_FLOAT
        }
      }
      attr {
        key: "_class"
        value {
          list {
            s: "loc:@resnet/residual_block/layer_norm_2/LayerNorm/gamma"
          }
        }
      }
      attr {
        key: "_output_shapes"
        value {
          list {
            shape {
              dim {
                size: 100
              }
            }
          }
        }
      }
    }
    node {
      name: "resnet/residual_block/layer_norm_2/LayerNorm/moments/mean/reduction_indices"
      op: "Const"
      attr {
        key: "_output_shapes"
        value {
          list {
            shape {
              dim {
                size: 2
              }
            }
          }
        }
      }
      attr {
        key: "dtype"
        value {
          type: DT_INT32
        }
      }
      attr {
        key: "value"
        value {
          tensor {
            dtype: DT_INT32
            tensor_shape {
              dim {
                size: 2
              }
            }
            tensor_content: "\001\000\000\000\002\000\000\000"
          }
        }
      }
    }
    node {
      name: "resnet/residual_block/layer_norm_2/LayerNorm/moments/mean"
      op: "Mean"
      input: "resnet/residual_block/dilated_causal_conv_2/causal_conv/conv1d/BiasAdd"
      input: "resnet/residual_block/layer_norm_2/LayerNorm/moments/mean/reduction_indices"
      attr {
        key: "T"
        value {
          type: DT_FLOAT
        }
      }
      attr {
        key: "_output_shapes"
        value {
          list {
            shape {
              dim {
                size: -1
              }
              dim {
                size: 1
              }
              dim {
                size: 1
              }
            }
          }
        }
      }
      attr {
        key: "keep_dims"
        value {
          b: true
        }
      }
    }
    node {
      name: "resnet/residual_block/layer_norm_2/LayerNorm/moments/StopGradient"
      op: "StopGradient"
      input: "resnet/residual_block/layer_norm_2/LayerNorm/moments/mean"
      attr {
        key: "T"
        value {
          type: DT_FLOAT
        }
      }
      attr {
        key: "_output_shapes"
        value {
          list {
            shape {
              dim {
                size: -1
              }
              dim {
                size: 1
              }
              dim {
                size: 1
              }
            }
          }
        }
      }
    }
    node {
      name: "resnet/residual_block/layer_norm_2/LayerNorm/moments/SquaredDifference"
      op: "SquaredDifference"
      input: "resnet/residual_block/dilated_causal_conv_2/causal_conv/conv1d/BiasAdd"
      input: "resnet/residual_block/layer_norm_2/LayerNorm/moments/StopGradient"
      attr {
        key: "T"
        value {
          type: DT_FLOAT
        }
      }
      attr {
        key: "_output_shapes"
        value {
          list {
            shape {
              dim {
                size: -1
              }
              dim {
                size: 30
              }
              dim {
                size: 100
              }
            }
          }
        }
      }
    }
    node {
      name: "resnet/residual_block/layer_norm_2/LayerNorm/moments/variance/reduction_indices"
      op: "Const"
      attr {
        key: "_output_shapes"
        value {
          list {
            shape {
              dim {
                size: 2
              }
            }
          }
        }
      }
      attr {
        key: "dtype"
        value {
          type: DT_INT32
        }
      }
      attr {
        key: "value"
        value {
          tensor {
            dtype: DT_INT32
            tensor_shape {
              dim {
                size: 2
              }
            }
            tensor_content: "\001\000\000\000\002\000\000\000"
          }
        }
      }
    }
    node {
      name: "resnet/residual_block/layer_norm_2/LayerNorm/moments/variance"
      op: "Mean"
      input: "resnet/residual_block/layer_norm_2/LayerNorm/moments/SquaredDifference"
      input: "resnet/residual_block/layer_norm_2/LayerNorm/moments/variance/reduction_indices"
      attr {
        key: "T"
        value {
          type: DT_FLOAT
        }
      }
      attr {
        key: "_output_shapes"
        value {
          list {
            shape {
              dim {
                size: -1
              }
              dim {
                size: 1
              }
              dim {
                size: 1
              }
            }
          }
        }
      }
      attr {
        key: "keep_dims"
        value {
          b: true
        }
      }
    }
    node {
      name: "resnet/residual_block/layer_norm_2/LayerNorm/batchnorm/add/y"
      op: "Const"
      attr {
        key: "_output_shapes"
        value {
          list {
            shape {
            }
          }
        }
      }
      attr {
        key: "dtype"
        value {
          type: DT_FLOAT
        }
      }
      attr {
        key: "value"
        value {
          tensor {
            dtype: DT_FLOAT
            tensor_shape {
            }
            float_val: 9.999999960041972e-13
          }
        }
      }
    }
    node {
      name: "resnet/residual_block/layer_norm_2/LayerNorm/batchnorm/add"
      op: "Add"
      input: "resnet/residual_block/layer_norm_2/LayerNorm/moments/variance"
      input: "resnet/residual_block/layer_norm_2/LayerNorm/batchnorm/add/y"
      attr {
        key: "T"
        value {
          type: DT_FLOAT
        }
      }
      attr {
        key: "_output_shapes"
        value {
          list {
            shape {
              dim {
                size: -1
              }
              dim {
                size: 1
              }
              dim {
                size: 1
              }
            }
          }
        }
      }
    }
    node {
      name: "resnet/residual_block/layer_norm_2/LayerNorm/batchnorm/Rsqrt"
      op: "Rsqrt"
      input: "resnet/residual_block/layer_norm_2/LayerNorm/batchnorm/add"
      attr {
        key: "T"
        value {
          type: DT_FLOAT
        }
      }
      attr {
        key: "_output_shapes"
        value {
          list {
            shape {
              dim {
                size: -1
              }
              dim {
                size: 1
              }
              dim {
                size: 1
              }
            }
          }
        }
      }
    }
    node {
      name: "resnet/residual_block/layer_norm_2/LayerNorm/batchnorm/mul"
      op: "Mul"
      input: "resnet/residual_block/layer_norm_2/LayerNorm/batchnorm/Rsqrt"
      input: "resnet/residual_block/layer_norm_2/LayerNorm/gamma/read"
      attr {
        key: "T"
        value {
          type: DT_FLOAT
        }
      }
      attr {
        key: "_output_shapes"
        value {
          list {
            shape {
              dim {
                size: -1
              }
              dim {
                size: 1
              }
              dim {
                size: 100
              }
            }
          }
        }
      }
    }
    node {
      name: "resnet/residual_block/layer_norm_2/LayerNorm/batchnorm/mul_1"
      op: "Mul"
      input: "resnet/residual_block/dilated_causal_conv_2/causal_conv/conv1d/BiasAdd"
      input: "resnet/residual_block/layer_norm_2/LayerNorm/batchnorm/mul"
      attr {
        key: "T"
        value {
          type: DT_FLOAT
        }
      }
      attr {
        key: "_output_shapes"
        value {
          list {
            shape {
              dim {
                size: -1
              }
              dim {
                size: 30
              }
              dim {
                size: 100
              }
            }
          }
        }
      }
    }
    node {
      name: "resnet/residual_block/layer_norm_2/LayerNorm/batchnorm/mul_2"
      op: "Mul"
      input: "resnet/residual_block/layer_norm_2/LayerNorm/moments/mean"
      input: "resnet/residual_block/layer_norm_2/LayerNorm/batchnorm/mul"
      attr {
        key: "T"
        value {
          type: DT_FLOAT
        }
      }
      attr {
        key: "_output_shapes"
        value {
          list {
            shape {
              dim {
                size: -1
              }
              dim {
                size: 1
              }
              dim {
                size: 100
              }
            }
          }
        }
      }
    }
    node {
      name: "resnet/residual_block/layer_norm_2/LayerNorm/batchnorm/sub"
      op: "Sub"
      input: "resnet/residual_block/layer_norm_2/LayerNorm/beta/read"
      input: "resnet/residual_block/layer_norm_2/LayerNorm/batchnorm/mul_2"
      attr {
        key: "T"
        value {
          type: DT_FLOAT
        }
      }
      attr {
        key: "_output_shapes"
        value {
          list {
            shape {
              dim {
                size: -1
              }
              dim {
                size: 1
              }
              dim {
                size: 100
              }
            }
          }
        }
      }
    }
    node {
      name: "resnet/residual_block/layer_norm_2/LayerNorm/batchnorm/add_1"
      op: "Add"
      input: "resnet/residual_block/layer_norm_2/LayerNorm/batchnorm/mul_1"
      input: "resnet/residual_block/layer_norm_2/LayerNorm/batchnorm/sub"
      attr {
        key: "T"
        value {
          type: DT_FLOAT
        }
      }
      attr {
        key: "_output_shapes"
        value {
          list {
            shape {
              dim {
                size: -1
              }
              dim {
                size: 30
              }
              dim {
                size: 100
              }
            }
          }
        }
      }
    }
    node {
      name: "resnet/residual_block/activation_2/Relu"
      op: "Relu"
      input: "resnet/residual_block/layer_norm_2/LayerNorm/batchnorm/add_1"
      attr {
        key: "T"
        value {
          type: DT_FLOAT
        }
      }
      attr {
        key: "_output_shapes"
        value {
          list {
            shape {
              dim {
                size: -1
              }
              dim {
                size: 30
              }
              dim {
                size: 100
              }
            }
          }
        }
      }
    }
    node {
      name: "resnet/residual_block/dropout_2/Dropout/dropout_1/keep_prob"
      op: "Const"
      attr {
        key: "_output_shapes"
        value {
          list {
            shape {
            }
          }
        }
      }
      attr {
        key: "dtype"
        value {
          type: DT_FLOAT
        }
      }
      attr {
        key: "value"
        value {
          tensor {
            dtype: DT_FLOAT
            tensor_shape {
            }
            float_val: 0.20000000298023224
          }
        }
      }
    }
    node {
      name: "resnet/residual_block/dropout_2/Dropout/dropout_1/random_uniform/shape"
      op: "Const"
      attr {
        key: "_output_shapes"
        value {
          list {
            shape {
              dim {
                size: 3
              }
            }
          }
        }
      }
      attr {
        key: "dtype"
        value {
          type: DT_INT32
        }
      }
      attr {
        key: "value"
        value {
          tensor {
            dtype: DT_INT32
            tensor_shape {
              dim {
                size: 3
              }
            }
            tensor_content: "\001\000\000\000\001\000\000\000d\000\000\000"
          }
        }
      }
    }
    node {
      name: "resnet/residual_block/dropout_2/Dropout/dropout_1/random_uniform/min"
      op: "Const"
      attr {
        key: "_output_shapes"
        value {
          list {
            shape {
            }
          }
        }
      }
      attr {
        key: "dtype"
        value {
          type: DT_FLOAT
        }
      }
      attr {
        key: "value"
        value {
          tensor {
            dtype: DT_FLOAT
            tensor_shape {
            }
            float_val: 0.0
          }
        }
      }
    }
    node {
      name: "resnet/residual_block/dropout_2/Dropout/dropout_1/random_uniform/max"
      op: "Const"
      attr {
        key: "_output_shapes"
        value {
          list {
            shape {
            }
          }
        }
      }
      attr {
        key: "dtype"
        value {
          type: DT_FLOAT
        }
      }
      attr {
        key: "value"
        value {
          tensor {
            dtype: DT_FLOAT
            tensor_shape {
            }
            float_val: 1.0
          }
        }
      }
    }
    node {
      name: "resnet/residual_block/dropout_2/Dropout/dropout_1/random_uniform/RandomUniform"
      op: "RandomUniform"
      input: "resnet/residual_block/dropout_2/Dropout/dropout_1/random_uniform/shape"
      attr {
        key: "T"
        value {
          type: DT_INT32
        }
      }
      attr {
        key: "_output_shapes"
        value {
          list {
            shape {
              dim {
                size: 1
              }
              dim {
                size: 1
              }
              dim {
                size: 100
              }
            }
          }
        }
      }
      attr {
        key: "dtype"
        value {
          type: DT_FLOAT
        }
      }
      attr {
        key: "seed"
        value {
          i: 1234
        }
      }
      attr {
        key: "seed2"
        value {
          i: 165
        }
      }
    }
    node {
      name: "resnet/residual_block/dropout_2/Dropout/dropout_1/random_uniform/sub"
      op: "Sub"
      input: "resnet/residual_block/dropout_2/Dropout/dropout_1/random_uniform/max"
      input: "resnet/residual_block/dropout_2/Dropout/dropout_1/random_uniform/min"
      attr {
        key: "T"
        value {
          type: DT_FLOAT
        }
      }
      attr {
        key: "_output_shapes"
        value {
          list {
            shape {
            }
          }
        }
      }
    }
    node {
      name: "resnet/residual_block/dropout_2/Dropout/dropout_1/random_uniform/mul"
      op: "Mul"
      input: "resnet/residual_block/dropout_2/Dropout/dropout_1/random_uniform/RandomUniform"
      input: "resnet/residual_block/dropout_2/Dropout/dropout_1/random_uniform/sub"
      attr {
        key: "T"
        value {
          type: DT_FLOAT
        }
      }
      attr {
        key: "_output_shapes"
        value {
          list {
            shape {
              dim {
                size: 1
              }
              dim {
                size: 1
              }
              dim {
                size: 100
              }
            }
          }
        }
      }
…
      attr {
        key: "seed"
        value {
          i: 1234
        }
      }
      attr {
        key: "seed2"
        value {
          i: 635
        }
      }
    }
    node {
      name: "fully_connected_2/w/Initializer/random_uniform/sub"
      op: "Sub"
      input: "fully_connected_2/w/Initializer/random_uniform/max"
      input: "fully_connected_2/w/Initializer/random_uniform/min"
      attr {
        key: "T"
        value {
          type: DT_FLOAT
        }
      }
      attr {
        key: "_class"
        value {
          list {
            s: "loc:@fully_connected_2/w"
          }
        }
      }
      attr {
        key: "_output_shapes"
        value {
          list {
            shape {
            }
          }
        }
      }
    }
    node {
      name: "fully_connected_2/w/Initializer/random_uniform/mul"
      op: "Mul"
      input: "fully_connected_2/w/Initializer/random_uniform/RandomUniform"
      input: "fully_connected_2/w/Initializer/random_uniform/sub"
      attr {
        key: "T"
        value {
          type: DT_FLOAT
        }
      }
      attr {
        key: "_class"
        value {
          list {
            s: "loc:@fully_connected_2/w"
          }
        }
      }
      attr {
        key: "_output_shapes"
        value {
          list {
            shape {
              dim {
                size: 20
              }
              dim {
                size: 5
              }
            }
          }
        }
      }
    }
    node {
      name: "fully_connected_2/w/Initializer/random_uniform"
      op: "Add"
      input: "fully_connected_2/w/Initializer/random_uniform/mul"
      input: "fully_connected_2/w/Initializer/random_uniform/min"
      attr {
        key: "T"
        value {
          type: DT_FLOAT
        }
      }
      attr {
        key: "_class"
        value {
          list {
            s: "loc:@fully_connected_2/w"
          }
        }
      }
      attr {
        key: "_output_shapes"
        value {
          list {
            shape {
              dim {
                size: 20
              }
              dim {
                size: 5
              }
            }
          }
        }
      }
    }
    node {
      name: "fully_connected_2/w"
      op: "VariableV2"
      attr {
        key: "_class"
        value {
          list {
            s: "loc:@fully_connected_2/w"
          }
        }
      }
      attr {
        key: "_output_shapes"
        value {
          list {
            shape {
              dim {
                size: 20
              }
              dim {
                size: 5
              }
            }
          }
        }
      }
      attr {
        key: "dtype"
        value {
          type: DT_FLOAT
        }
      }
      attr {
        key: "shape"
        value {
          shape {
            dim {
              size: 20
            }
            dim {
              size: 5
            }
          }
        }
      }
    }
    node {
      name: "fully_connected_2/w/Assign"
      op: "Assign"
      input: "fully_connected_2/w"
      input: "fully_connected_2/w/Initializer/random_uniform"
      attr {
        key: "T"
        value {
          type: DT_FLOAT
        }
      }
      attr {
        key: "_class"
        value {
          list {
            s: "loc:@fully_connected_2/w"
          }
        }
      }
      attr {
        key: "_output_shapes"
        value {
          list {
            shape {
              dim {
                size: 20
              }
              dim {
                size: 5
              }
            }
          }
        }
      }
    }
    node {
      name: "fully_connected_2/w/read"
      op: "Identity"
      input: "fully_connected_2/w"
      attr {
        key: "T"
        value {
          type: DT_FLOAT
        }
      }
      attr {
        key: "_class"
        value {
          list {
            s: "loc:@fully_connected_2/w"
          }
        }
      }
      attr {
        key: "_output_shapes"
        value {
          list {
            shape {
              dim {
                size: 20
              }
              dim {
                size: 5
              }
            }
          }
        }
      }
    }
    node {
      name: "fully_connected_2/b/Initializer/Const"
      op: "Const"
      attr {
        key: "_class"
        value {
          list {
            s: "loc:@fully_connected_2/b"
          }
        }
      }
      attr {
        key: "_output_shapes"
        value {
          list {
            shape {
              dim {
                size: 5
              }
            }
          }
        }
      }
      attr {
        key: "dtype"
        value {
          type: DT_FLOAT
        }
      }
      attr {
        key: "value"
        value {
          tensor {
            dtype: DT_FLOAT
            tensor_shape {
              dim {
                size: 5
              }
            }
            float_val: 0.0
          }
        }
      }
    }
    node {
      name: "fully_connected_2/b"
      op: "VariableV2"
      attr {
        key: "_class"
        value {
          list {
            s: "loc:@fully_connected_2/b"
          }
        }
      }
      attr {
        key: "_output_shapes"
        value {
          list {
            shape {
              dim {
                size: 5
              }
            }
          }
        }
      }
      attr {
        key: "dtype"
        value {
          type: DT_FLOAT
        }
      }
      attr {
        key: "shape"
        value {
          shape {
            dim {
              size: 5
            }
          }
        }
      }
    }
    node {
      name: "fully_connected_2/b/Assign"
      op: "Assign"
      input: "fully_connected_2/b"
      input: "fully_connected_2/b/Initializer/Const"
      attr {
        key: "T"
        value {
          type: DT_FLOAT
        }
      }
      attr {
        key: "_class"
        value {
          list {
            s: "loc:@fully_connected_2/b"
          }
        }
      }
      attr {
        key: "_output_shapes"
        value {
          list {
            shape {
              dim {
                size: 5
              }
            }
          }
        }
      }
    }
    node {
      name: "fully_connected_2/b/read"
      op: "Identity"
      input: "fully_connected_2/b"
      attr {
        key: "T"
        value {
          type: DT_FLOAT
        }
      }
      attr {
        key: "_class"
        value {
          list {
            s: "loc:@fully_connected_2/b"
          }
        }
      }
      attr {
        key: "_output_shapes"
        value {
          list {
            shape {
              dim {
                size: 5
              }
            }
          }
        }
      }
    }
    node {
      name: "fully_connected_2/MatMul"
      op: "MatMul"
      input: "fully_connected_1/Relu"
      input: "fully_connected_2/w/read"
      attr {
        key: "T"
        value {
          type: DT_FLOAT
        }
      }
      attr {
        key: "_output_shapes"
        value {
          list {
            shape {
              dim {
                size: -1
              }
              dim {
                size: 5
              }
            }
          }
        }
      }
    }
    node {
      name: "fully_connected_2/add"
      op: "Add"
      input: "fully_connected_2/MatMul"
      input: "fully_connected_2/b/read"
      attr {
        key: "T"
        value {
          type: DT_FLOAT
        }
      }
      attr {
        key: "_output_shapes"
        value {
          list {
            shape {
              dim {
                size: -1
              }
              dim {
                size: 5
              }
            }
          }
        }
      }
    }
    node {
      name: "ArgMax/dimension"
      op: "Const"
      attr {
        key: "_output_shapes"
        value {
          list {
            shape {
            }
          }
        }
      }
      attr {
        key: "dtype"
        value {
          type: DT_INT32
        }
      }
      attr {
        key: "value"
        value {
          tensor {
            dtype: DT_INT32
            tensor_shape {
            }
            int_val: -1
          }
        }
      }
    }
    node {
      name: "ArgMax"
      op: "ArgMax"
      input: "fully_connected_2/add"
      input: "ArgMax/dimension"
      attr {
        key: "T"
        value {
          type: DT_FLOAT
        }
      }
      attr {
        key: "_output_shapes"
        value {
          list {
            shape {
              dim {
                size: -1
              }
            }
          }
        }
      }
    }
    node {
      name: "predictions"
      op: "Squeeze"
      input: "ArgMax"
      attr {
        key: "T"
        value {
          type: DT_INT64
        }
      }
      attr {
        key: "_output_shapes"
        value {
          list {
            shape {
              unknown_rank: true
            }
          }
        }
      }
    }
    node {
      name: "GatherV2/params"
      op: "Const"
      attr {
        key: "_output_shapes"
        value {
          list {
            shape {
              dim {
                size: 5
              }
            }
          }
        }
      }
      attr {
        key: "dtype"
        value {
          type: DT_STRING
        }
      }
      attr {
        key: "value"
        value {
          tensor {
            dtype: DT_STRING
            tensor_shape {
              dim {
                size: 5
              }
            }
            string_val: "0"
            string_val: "1"
            string_val: "2"
            string_val: "3"
            string_val: "4"
          }
        }
      }
    }
    node {
      name: "GatherV2/axis"
      op: "Const"
      attr {
        key: "_output_shapes"
        value {
          list {
            shape {
            }
          }
        }
      }
      attr {
        key: "dtype"
        value {
          type: DT_INT32
        }
      }
      attr {
        key: "value"
        value {
          tensor {
            dtype: DT_INT32
            tensor_shape {
            }
            int_val: 0
          }
        }
      }
    }
    node {
      name: "GatherV2"
      op: "GatherV2"
      input: "GatherV2/params"
      input: "predictions"
      input: "GatherV2/axis"
      attr {
        key: "Taxis"
        value {
          type: DT_INT32
        }
      }
      attr {
        key: "Tindices"
        value {
          type: DT_INT64
        }
      }
      attr {
        key: "Tparams"
        value {
          type: DT_STRING
        }
      }
      attr {
        key: "_output_shapes"
        value {
          list {
            shape {
              unknown_rank: true
            }
          }
        }
      }
    }
    node {
      name: "init"
      op: "NoOp"
    }
    node {
      name: "init_all_tables"
      op: "NoOp"
      input: "^string_to_index/hash_table/table_init"
    }
    node {
      name: "init_1"
      op: "NoOp"
    }
    node {
      name: "group_deps"
      op: "NoOp"
      input: "^init"
      input: "^init_1"
      input: "^init_all_tables"
    }
    node {
      name: "save/Const"
      op: "Const"
      attr {
        key: "_output_shapes"
        value {
          list {
            shape {
            }
          }
        }
      }
      attr {
        key: "dtype"
        value {
          type: DT_STRING
        }
      }
      attr {
        key: "value"
        value {
          tensor {
            dtype: DT_STRING
            tensor_shape {
            }
            string_val: "model"
          }
        }
      }
    }
    node {
      name: "save/StringJoin/inputs_1"
      op: "Const"
      attr {
        key: "_output_shapes"
        value {
          list {
            shape {
            }
          }
        }
      }
      attr {
        key: "dtype"
        value {
          type: DT_STRING
        }
      }
      attr {
        key: "value"
        value {
          tensor {
            dtype: DT_STRING
            tensor_shape {
            }
            string_val: "_temp_056873f3bbae434ea13ed7433dce6c0a/part"
          }
        }
      }
    }
    node {
      name: "save/StringJoin"
      op: "StringJoin"
      input: "save/Const"
      input: "save/StringJoin/inputs_1"
      attr {
        key: "N"
        value {
          i: 2
        }
      }
      attr {
        key: "_output_shapes"
        value {
          list {
            shape {
            }
          }
        }
      }
    }
    node {
      name: "save/num_shards"
      op: "Const"
      attr {
        key: "_output_shapes"
        value {
          list {
            shape {
            }
          }
        }
      }
      attr {
        key: "dtype"
        value {
          type: DT_INT32
        }
      }
      attr {
        key: "value"
        value {
          tensor {
            dtype: DT_INT32
            tensor_shape {
            }
            int_val: 1
          }
        }
      }
    }
    node {
      name: "save/ShardedFilename/shard"
      op: "Const"
      device: "/device:CPU:0"
      attr {
        key: "_output_shapes"
        value {
          list {
            shape {
            }
          }
        }
      }
      attr {
        key: "dtype"
        value {
          type: DT_INT32
        }
      }
      attr {
        key: "value"
        value {
          tensor {
            dtype: DT_INT32
            tensor_shape {
            }
            int_val: 0
          }
        }
      }
    }
    node {
      name: "save/ShardedFilename"
      op: "ShardedFilename"
      input: "save/StringJoin"
      input: "save/ShardedFilename/shard"
      input: "save/num_shards"
      device: "/device:CPU:0"
      attr {
        key: "_output_shapes"
        value {
          list {
            shape {
            }
          }
        }
      }
    }
    node {
      name: "save/SaveV2/tensor_names"
      op: "Const"
      device: "/device:CPU:0"
      attr {
        key: "_output_shapes"
        value {
          list {
            shape {
              dim {
                size: 18
              }
            }
          }
        }
      }
      attr {
        key: "dtype"
        value {
          type: DT_STRING
        }
      }
      attr {
        key: "value"
        value {
          tensor {
            dtype: DT_STRING
            tensor_shape {
              dim {
                size: 18
              }
            }
            string_val: "conv1d/bias"
            string_val: "conv1d/kernel"
            string_val: "embedding_scope/embedding"
            string_val: "fully_connected_1/b"
            string_val: "fully_connected_1/w"
            string_val: "fully_connected_2/b"
            string_val: "fully_connected_2/w"
            string_val: "global_step"
            string_val: "resnet/residual_block/conv1d/bias"
            string_val: "resnet/residual_block/conv1d/kernel"
            string_val: "resnet/residual_block/dilated_causal_conv_1/causal_conv/conv1d/bias"
            string_val: "resnet/residual_block/dilated_causal_conv_1/causal_conv/conv1d/kernel"
            string_val: "resnet/residual_block/dilated_causal_conv_2/causal_conv/conv1d/bias"
            string_val: "resnet/residual_block/dilated_causal_conv_2/causal_conv/conv1d/kernel"
            string_val: "resnet/residual_block/layer_norm_1/LayerNorm/beta"
            string_val: "resnet/residual_block/layer_norm_1/LayerNorm/gamma"
            string_val: "resnet/residual_block/layer_norm_2/LayerNorm/beta"
            string_val: "resnet/residual_block/layer_norm_2/LayerNorm/gamma"
          }
        }
      }
    }
    node {
      name: "save/SaveV2/shape_and_slices"
      op: "Const"
      device: "/device:CPU:0"
      attr {
        key: "_output_shapes"
        value {
          list {
            shape {
              dim {
                size: 18
              }
            }
          }
        }
      }
      attr {
        key: "dtype"
        value {
          type: DT_STRING
        }
      }
      attr {
        key: "value"
        value {
          tensor {
            dtype: DT_STRING
            tensor_shape {
              dim {
                size: 18
              }
            }
            string_val: ""
            string_val: ""
            string_val: ""
            string_val: ""
            string_val: ""
            string_val: ""
            string_val: ""
            string_val: ""
            string_val: ""
            string_val: ""
            string_val: ""
            string_val: ""
            string_val: ""
            string_val: ""
            string_val: ""
            string_val: ""
            string_val: ""
            string_val: ""
          }
        }
      }
    }
    node {
      name: "save/SaveV2"
      op: "SaveV2"
      input: "save/ShardedFilename"
      input: "save/SaveV2/tensor_names"
      input: "save/SaveV2/shape_and_slices"
      input: "conv1d/bias"
      input: "conv1d/kernel"
      input: "embedding_scope/embedding"
      input: "fully_connected_1/b"
      input: "fully_connected_1/w"
      input: "fully_connected_2/b"
      input: "fully_connected_2/w"
      input: "global_step"
      input: "resnet/residual_block/conv1d/bias"
      input: "resnet/residual_block/conv1d/kernel"
      input: "resnet/residual_block/dilated_causal_conv_1/causal_conv/conv1d/bias"
      input: "resnet/residual_block/dilated_causal_conv_1/causal_conv/conv1d/kernel"
      input: "resnet/residual_block/dilated_causal_conv_2/causal_conv/conv1d/bias"
      input: "resnet/residual_block/dilated_causal_conv_2/causal_conv/conv1d/kernel"
      input: "resnet/residual_block/layer_norm_1/LayerNorm/beta"
      input: "resnet/residual_block/layer_norm_1/LayerNorm/gamma"
      input: "resnet/residual_block/layer_norm_2/LayerNorm/beta"
      input: "resnet/residual_block/layer_norm_2/LayerNorm/gamma"
      device: "/device:CPU:0"
      attr {
        key: "dtypes"
        value {
          list {
            type: DT_FLOAT
            type: DT_FLOAT
            type: DT_FLOAT
            type: DT_FLOAT
            type: DT_FLOAT
            type: DT_FLOAT
            type: DT_FLOAT
            type: DT_INT64
            type: DT_FLOAT
            type: DT_FLOAT
            type: DT_FLOAT
            type: DT_FLOAT
            type: DT_FLOAT
            type: DT_FLOAT
            type: DT_FLOAT
            type: DT_FLOAT
            type: DT_FLOAT
            type: DT_FLOAT
          }
        }
      }
    }
    node {
      name: "save/control_dependency"
      op: "Identity"
      input: "save/ShardedFilename"
      input: "^save/SaveV2"
      device: "/device:CPU:0"
      attr {
        key: "T"
        value {
          type: DT_STRING
        }
      }
      attr {
        key: "_class"
        value {
          list {
            s: "loc:@save/ShardedFilename"
          }
        }
      }
      attr {
        key: "_output_shapes"
        value {
          list {
            shape {
            }
          }
        }
      }
    }
    node {
      name: "save/MergeV2Checkpoints/checkpoint_prefixes"
      op: "Pack"
      input: "save/ShardedFilename"
      input: "^save/control_dependency"
      device: "/device:CPU:0"
      attr {
        key: "N"
        value {
          i: 1
        }
      }
      attr {
        key: "T"
        value {
          type: DT_STRING
        }
      }
      attr {
        key: "_output_shapes"
        value {
          list {
            shape {
              dim {
                size: 1
              }
            }
          }
        }
      }
    }
    node {
      name: "save/MergeV2Checkpoints"
      op: "MergeV2Checkpoints"
      input: "save/MergeV2Checkpoints/checkpoint_prefixes"
      input: "save/Const"
      device: "/device:CPU:0"
    }
    node {
      name: "save/Identity"
      op: "Identity"
      input: "save/Const"
      input: "^save/MergeV2Checkpoints"
      input: "^save/control_dependency"
      device: "/device:CPU:0"
      attr {
        key: "T"
        value {
          type: DT_STRING
        }
      }
      attr {
        key: "_output_shapes"
        value {
          list {
            shape {
            }
          }
        }
      }
    }
    node {
      name: "save/RestoreV2/tensor_names"
      op: "Const"
      device: "/device:CPU:0"
      attr {
        key: "_output_shapes"
        value {
          list {
            shape {
              dim {
                size: 18
              }
            }
          }
        }
      }
      attr {
        key: "dtype"
        value {
          type: DT_STRING
        }
      }
      attr {
        key: "value"
        value {
          tensor {
            dtype: DT_STRING
            tensor_shape {
              dim {
                size: 18
              }
            }
            string_val: "conv1d/bias"
            string_val: "conv1d/kernel"
            string_val: "embedding_scope/embedding"
            string_val: "fully_connected_1/b"
            string_val: "fully_connected_1/w"
            string_val: "fully_connected_2/b"
            string_val: "fully_connected_2/w"
            string_val: "global_step"
            string_val: "resnet/residual_block/conv1d/bias"
            string_val: "resnet/residual_block/conv1d/kernel"
            string_val: "resnet/residual_block/dilated_causal_conv_1/causal_conv/conv1d/bias"
            string_val: "resnet/residual_block/dilated_causal_conv_1/causal_conv/conv1d/kernel"
            string_val: "resnet/residual_block/dilated_causal_conv_2/causal_conv/conv1d/bias"
            string_val: "resnet/residual_block/dilated_causal_conv_2/causal_conv/conv1d/kernel"
            string_val: "resnet/residual_block/layer_norm_1/LayerNorm/beta"
            string_val: "resnet/residual_block/layer_norm_1/LayerNorm/gamma"
            string_val: "resnet/residual_block/layer_norm_2/LayerNorm/beta"
            string_val: "resnet/residual_block/layer_norm_2/LayerNorm/gamma"
          }
        }
      }
    }
    node {
      name: "save/RestoreV2/shape_and_slices"
      op: "Const"
      device: "/device:CPU:0"
      attr {
        key: "_output_shapes"
        value {
          list {
            shape {
              dim {
                size: 18
              }
            }
          }
        }
      }
      attr {
        key: "dtype"
        value {
          type: DT_STRING
        }
      }
      attr {
        key: "value"
        value {
          tensor {
            dtype: DT_STRING
            tensor_shape {
              dim {
                size: 18
              }
            }
            string_val: ""
            string_val: ""
            string_val: ""
            string_val: ""
            string_val: ""
            string_val: ""
            string_val: ""
            string_val: ""
            string_val: ""
            string_val: ""
            string_val: ""
            string_val: ""
            string_val: ""
            string_val: ""
            string_val: ""
            string_val: ""
            string_val: ""
            string_val: ""
          }
        }
      }
    }
    node {
      name: "save/RestoreV2"
      op: "RestoreV2"
      input: "save/Const"
      input: "save/RestoreV2/tensor_names"
      input: "save/RestoreV2/shape_and_slices"
      device: "/device:CPU:0"
      attr {
        key: "_output_shapes"
        value {
          list {
            shape {
              unknown_rank: true
            }
            shape {
              unknown_rank: true
            }
            shape {
              unknown_rank: true
            }
            shape {
              unknown_rank: true
            }
            shape {
              unknown_rank: true
            }
            shape {
              unknown_rank: true
            }
            shape {
              unknown_rank: true
            }
            shape {
              unknown_rank: true
            }
            shape {
              unknown_rank: true
            }
            shape {
              unknown_rank: true
            }
            shape {
              unknown_rank: true
            }
            shape {
              unknown_rank: true
            }
            shape {
              unknown_rank: true
            }
            shape {
              unknown_rank: true
            }
            shape {
              unknown_rank: true
            }
            shape {
              unknown_rank: true
            }
            shape {
              unknown_rank: true
            }
            shape {
              unknown_rank: true
            }
          }
        }
      }
      attr {
        key: "dtypes"
        value {
          list {
            type: DT_FLOAT
            type: DT_FLOAT
            type: DT_FLOAT
            type: DT_FLOAT
            type: DT_FLOAT
            type: DT_FLOAT
            type: DT_FLOAT
            type: DT_INT64
            type: DT_FLOAT
            type: DT_FLOAT
            type: DT_FLOAT
            type: DT_FLOAT
            type: DT_FLOAT
            type: DT_FLOAT
            type: DT_FLOAT
            type: DT_FLOAT
            type: DT_FLOAT
            type: DT_FLOAT
          }
        }
      }
    }
    node {
      name: "save/Assign"
      op: "Assign"
      input: "conv1d/bias"
      input: "save/RestoreV2"
      attr {
        key: "T"
        value {
          type: DT_FLOAT
        }
      }
      attr {
        key: "_class"
        value {
          list {
            s: "loc:@conv1d/bias"
          }
        }
      }
      attr {
        key: "_output_shapes"
        value {
          list {
            shape {
              dim {
                size: 100
              }
            }
          }
        }
      }
    }
    node {
      name: "save/Assign_1"
      op: "Assign"
      input: "conv1d/kernel"
      input: "save/RestoreV2:1"
      attr {
        key: "T"
        value {
          type: DT_FLOAT
        }
      }
      attr {
        key: "_class"
        value {
          list {
            s: "loc:@conv1d/kernel"
          }
        }
      }
      attr {
        key: "_output_shapes"
        value {
          list {
            shape {
              dim {
                size: 1
              }
              dim {
                size: 128
              }
              dim {
                size: 100
              }
            }
          }
        }
      }
    }
    node {
      name: "save/Assign_2"
      op: "Assign"
      input: "embedding_scope/embedding"
      input: "save/RestoreV2:2"
      attr {
        key: "T"
        value {
          type: DT_FLOAT
        }
      }
      attr {
        key: "_class"
        value {
          list {
            s: "loc:@embedding_scope/embedding"
          }
        }
      }
      attr {
        key: "_output_shapes"
        value {
          list {
            shape {
              dim {
                size: 20000
              }
              dim {
                size: 128
              }
            }
          }
        }
      }
    }
    node {
      name: "save/Assign_3"
      op: "Assign"
      input: "fully_connected_1/b"
      input: "save/RestoreV2:3"
      attr {
        key: "T"
        value {
          type: DT_FLOAT
        }
      }
      attr {
        key: "_class"
        value {
          list {
            s: "loc:@fully_connected_1/b"
          }
        }
      }
      attr {
        key: "_output_shapes"
        value {
          list {
            shape {
              dim {
                size: 20
              }
            }
          }
        }
      }
    }
    node {
      name: "save/Assign_4"
      op: "Assign"
      input: "fully_connected_1/w"
      input: "save/RestoreV2:4"
      attr {
        key: "T"
        value {
          type: DT_FLOAT
        }
      }
      attr {
        key: "_class"
        value {
          list {
            s: "loc:@fully_connected_1/w"
          }
        }
      }
      attr {
        key: "_output_shapes"
        value {
          list {
            shape {
              dim {
                size: 100
              }
              dim {
                size: 20
              }
            }
          }
        }
      }
    }
    node {
      name: "save/Assign_5"
      op: "Assign"
      input: "fully_connected_2/b"
      input: "save/RestoreV2:5"
      attr {
        key: "T"
        value {
          type: DT_FLOAT
        }
      }
      attr {
        key: "_class"
        value {
          list {
            s: "loc:@fully_connected_2/b"
          }
        }
      }
      attr {
        key: "_output_shapes"
        value {
          list {
            shape {
              dim {
                size: 5
              }
            }
          }
        }
      }
    }
    node {
      name: "save/Assign_6"
      op: "Assign"
      input: "fully_connected_2/w"
      input: "save/RestoreV2:6"
      attr {
        key: "T"
        value {
          type: DT_FLOAT
        }
      }
      attr {
        key: "_class"
        value {
          list {
            s: "loc:@fully_connected_2/w"
          }
        }
      }
      attr {
        key: "_output_shapes"
        value {
          list {
            shape {
              dim {
                size: 20
              }
              dim {
                size: 5
              }
            }
          }
        }
      }
    }
    node {
      name: "save/Assign_7"
      op: "Assign"
      input: "global_step"
      input: "save/RestoreV2:7"
      attr {
        key: "T"
        value {
          type: DT_INT64
        }
      }
      attr {
        key: "_class"
        value {
          list {
            s: "loc:@global_step"
          }
        }
      }
      attr {
        key: "_output_shapes"
        value {
          list {
            shape {
            }
          }
        }
      }
    }
    node {
      name: "save/Assign_8"
      op: "Assign"
      input: "resnet/residual_block/conv1d/bias"
      input: "save/RestoreV2:8"
      attr {
        key: "T"
        value {
          type: DT_FLOAT
        }
      }
      attr {
        key: "_class"
        value {
          list {
            s: "loc:@resnet/residual_block/conv1d/bias"
          }
        }
      }
      attr {
        key: "_output_shapes"
        value {
          list {
            shape {
              dim {
                size: 100
              }
            }
          }
        }
      }
    }
    node {
      name: "save/Assign_9"
      op: "Assign"
      input: "resnet/residual_block/conv1d/kernel"
      input: "save/RestoreV2:9"
      attr {
        key: "T"
        value {
          type: DT_FLOAT
        }
      }
      attr {
        key: "_class"
        value {
          list {
            s: "loc:@resnet/residual_block/conv1d/kernel"
          }
        }
      }
      attr {
        key: "_output_shapes"
        value {
          list {
            shape {
              dim {
                size: 1
              }
              dim {
                size: 100
              }
              dim {
                size: 100
              }
            }
          }
        }
      }
    }
    node {
      name: "save/Assign_10"
      op: "Assign"
      input: "resnet/residual_block/dilated_causal_conv_1/causal_conv/conv1d/bias"
      input: "save/RestoreV2:10"
      attr {
        key: "T"
        value {
          type: DT_FLOAT
        }
      }
      attr {
        key: "_class"
        value {
          list {
            s: "loc:@resnet/residual_block/dilated_causal_conv_1/causal_conv/conv1d/bias"
          }
        }
      }
      attr {
        key: "_output_shapes"
        value {
          list {
            shape {
              dim {
                size: 100
              }
            }
          }
        }
      }
    }
    node {
      name: "save/Assign_11"
      op: "Assign"
      input: "resnet/residual_block/dilated_causal_conv_1/causal_conv/conv1d/kernel"
      input: "save/RestoreV2:11"
      attr {
        key: "T"
        value {
          type: DT_FLOAT
        }
      }
      attr {
        key: "_class"
        value {
          list {
            s: "loc:@resnet/residual_block/dilated_causal_conv_1/causal_conv/conv1d/kernel"
          }
        }
      }
      attr {
        key: "_output_shapes"
        value {
          list {
            shape {
              dim {
                size: 2
              }
              dim {
                size: 100
              }
              dim {
                size: 100
              }
            }
          }
        }
      }
    }
    node {
      name: "save/Assign_12"
      op: "Assign"
      input: "resnet/residual_block/dilated_causal_conv_2/causal_conv/conv1d/bias"
      input: "save/RestoreV2:12"
      attr {
        key: "T"
        value {
          type: DT_FLOAT
        }
      }
      attr {
        key: "_class"
        value {
          list {
            s: "loc:@resnet/residual_block/dilated_causal_conv_2/causal_conv/conv1d/bias"
          }
        }
      }
      attr {
        key: "_output_shapes"
        value {
          list {
            shape {
              dim {
                size: 100
              }
            }
          }
        }
      }
    }
    node {
      name: "save/Assign_13"
      op: "Assign"
      input: "resnet/residual_block/dilated_causal_conv_2/causal_conv/conv1d/kernel"
      input: "save/RestoreV2:13"
      attr {
        key: "T"
        value {
          type: DT_FLOAT
        }
      }
      attr {
        key: "_class"
        value {
          list {
            s: "loc:@resnet/residual_block/dilated_causal_conv_2/causal_conv/conv1d/kernel"
          }
        }
      }
      attr {
        key: "_output_shapes"
        value {
          list {
            shape {
              dim {
                size: 2
              }
              dim {
                size: 100
              }
              dim {
                size: 100
              }
            }
          }
        }
      }
    }
    node {
      name: "save/Assign_14"
      op: "Assign"
      input: "resnet/residual_block/layer_norm_1/LayerNorm/beta"
      input: "save/RestoreV2:14"
      attr {
        key: "T"
        value {
          type: DT_FLOAT
        }
      }
      attr {
        key: "_class"
        value {
          list {
            s: "loc:@resnet/residual_block/layer_norm_1/LayerNorm/beta"
          }
        }
      }
      attr {
        key: "_output_shapes"
        value {
          list {
            shape {
              dim {
                size: 100
              }
            }
          }
        }
      }
    }
    node {
      name: "save/Assign_15"
      op: "Assign"
      input: "resnet/residual_block/layer_norm_1/LayerNorm/gamma"
      input: "save/RestoreV2:15"
      attr {
        key: "T"
        value {
          type: DT_FLOAT
        }
      }
      attr {
        key: "_class"
        value {
          list {
            s: "loc:@resnet/residual_block/layer_norm_1/LayerNorm/gamma"
          }
        }
      }
      attr {
        key: "_output_shapes"
        value {
          list {
            shape {
              dim {
                size: 100
              }
            }
          }
        }
      }
    }
    node {
      name: "save/Assign_16"
      op: "Assign"
      input: "resnet/residual_block/layer_norm_2/LayerNorm/beta"
      input: "save/RestoreV2:16"
      attr {
        key: "T"
        value {
          type: DT_FLOAT
        }
      }
      attr {
        key: "_class"
        value {
          list {
            s: "loc:@resnet/residual_block/layer_norm_2/LayerNorm/beta"
          }
        }
      }
      attr {
        key: "_output_shapes"
        value {
          list {
            shape {
              dim {
                size: 100
              }
            }
          }
        }
      }
    }
    node {
      name: "save/Assign_17"
      op: "Assign"
      input: "resnet/residual_block/layer_norm_2/LayerNorm/gamma"
      input: "save/RestoreV2:17"
      attr {
        key: "T"
        value {
          type: DT_FLOAT
        }
      }
      attr {
        key: "_class"
        value {
          list {
            s: "loc:@resnet/residual_block/layer_norm_2/LayerNorm/gamma"
          }
        }
      }
      attr {
        key: "_output_shapes"
        value {
          list {
            shape {
              dim {
                size: 100
              }
            }
          }
        }
      }
    }
    node {
      name: "save/restore_shard"
      op: "NoOp"
      input: "^save/Assign"
      input: "^save/Assign_1"
      input: "^save/Assign_10"
      input: "^save/Assign_11"
      input: "^save/Assign_12"
      input: "^save/Assign_13"
      input: "^save/Assign_14"
      input: "^save/Assign_15"
      input: "^save/Assign_16"
      input: "^save/Assign_17"
      input: "^save/Assign_2"
      input: "^save/Assign_3"
      input: "^save/Assign_4"
      input: "^save/Assign_5"
      input: "^save/Assign_6"
      input: "^save/Assign_7"
      input: "^save/Assign_8"
      input: "^save/Assign_9"
    }
    node {
      name: "save/restore_all"
      op: "NoOp"
      input: "^save/restore_shard"
    }
    versions {
      producer: 26
    }
  }
  saver_def {
    filename_tensor_name: "save/Const:0"
    save_tensor_name: "save/Identity:0"
    restore_op_name: "save/restore_all"
    max_to_keep: 5
    sharded: true
    keep_checkpoint_every_n_hours: 10000.0
    version: V2
  }
  collection_def {
    key: "asset_filepaths"
    value {
      node_list {
        value: "string_to_index/hash_table/table_init/asset_filepath:0"
      }
    }
  }
  collection_def {
    key: "global_step"
    value {
      bytes_list {
        value: "\n\rglobal_step:0\022\022global_step/Assign\032\022global_step/read:02\037global_step/Initializer/zeros:0"
      }
    }
  }
  collection_def {
    key: "legacy_init_op"
    value {
      node_list {
        value: "group_deps"
      }
    }
  }
  collection_def {
    key: "model_variables"
    value {
      bytes_list {
        value: "\n3resnet/residual_block/layer_norm_1/LayerNorm/beta:0\0228resnet/residual_block/layer_norm_1/LayerNorm/beta/Assign\0328resnet/residual_block/layer_norm_1/LayerNorm/beta/read:02Eresnet/residual_block/layer_norm_1/LayerNorm/beta/Initializer/zeros:08\001"
        value: "\n4resnet/residual_block/layer_norm_1/LayerNorm/gamma:0\0229resnet/residual_block/layer_norm_1/LayerNorm/gamma/Assign\0329resnet/residual_block/layer_norm_1/LayerNorm/gamma/read:02Eresnet/residual_block/layer_norm_1/LayerNorm/gamma/Initializer/ones:08\001"
        value: "\n3resnet/residual_block/layer_norm_2/LayerNorm/beta:0\0228resnet/residual_block/layer_norm_2/LayerNorm/beta/Assign\0328resnet/residual_block/layer_norm_2/LayerNorm/beta/read:02Eresnet/residual_block/layer_norm_2/LayerNorm/beta/Initializer/zeros:08\001"
        value: "\n4resnet/residual_block/layer_norm_2/LayerNorm/gamma:0\0229resnet/residual_block/layer_norm_2/LayerNorm/gamma/Assign\0329resnet/residual_block/layer_norm_2/LayerNorm/gamma/read:02Eresnet/residual_block/layer_norm_2/LayerNorm/gamma/Initializer/ones:08\001"
      }
    }
  }
  collection_def {
    key: "saved_model_assets"
    value {
      any_list {
        value {
          type_url: "type.googleapis.com/tensorflow.AssetFileDef"
          value: "\n8\n6string_to_index/hash_table/table_init/asset_filepath:0\022\005vocab"
        }
      }
    }
  }
  collection_def {
    key: "table_initializer"
    value {
      node_list {
        value: "string_to_index/hash_table/table_init"
      }
    }
  }
  collection_def {
    key: "trainable_variables"
    value {
      bytes_list {
        value: "\n\033embedding_scope/embedding:0\022 embedding_scope/embedding/Assign\032 embedding_scope/embedding/read:026embedding_scope/embedding/Initializer/random_uniform:08\001"
        value: "\n\017conv1d/kernel:0\022\024conv1d/kernel/Assign\032\024conv1d/kernel/read:02*conv1d/kernel/Initializer/random_uniform:08\001"
        value: "\n\rconv1d/bias:0\022\022conv1d/bias/Assign\032\022conv1d/bias/read:02\037conv1d/bias/Initializer/zeros:08\001"
        value: "\nGresnet/residual_block/dilated_causal_conv_1/causal_conv/conv1d/kernel:0\022Lresnet/residual_block/dilated_causal_conv_1/causal_conv/conv1d/kernel/Assign\032Lresnet/residual_block/dilated_causal_conv_1/causal_conv/conv1d/kernel/read:02bresnet/residual_block/dilated_causal_conv_1/causal_conv/conv1d/kernel/Initializer/random_uniform:08\001"
        value: "\nEresnet/residual_block/dilated_causal_conv_1/causal_conv/conv1d/bias:0\022Jresnet/residual_block/dilated_causal_conv_1/causal_conv/conv1d/bias/Assign\032Jresnet/residual_block/dilated_causal_conv_1/causal_conv/conv1d/bias/read:02Wresnet/residual_block/dilated_causal_conv_1/causal_conv/conv1d/bias/Initializer/zeros:08\001"
        value: "\n3resnet/residual_block/layer_norm_1/LayerNorm/beta:0\0228resnet/residual_block/layer_norm_1/LayerNorm/beta/Assign\0328resnet/residual_block/layer_norm_1/LayerNorm/beta/read:02Eresnet/residual_block/layer_norm_1/LayerNorm/beta/Initializer/zeros:08\001"
        value: "\n4resnet/residual_block/layer_norm_1/LayerNorm/gamma:0\0229resnet/residual_block/layer_norm_1/LayerNorm/gamma/Assign\0329resnet/residual_block/layer_norm_1/LayerNorm/gamma/read:02Eresnet/residual_block/layer_norm_1/LayerNorm/gamma/Initializer/ones:08\001"
        value: "\nGresnet/residual_block/dilated_causal_conv_2/causal_conv/conv1d/kernel:0\022Lresnet/residual_block/dilated_causal_conv_2/causal_conv/conv1d/kernel/Assign\032Lresnet/residual_block/dilated_causal_conv_2/causal_conv/conv1d/kernel/read:02bresnet/residual_block/dilated_causal_conv_2/causal_conv/conv1d/kernel/Initializer/random_uniform:08\001"
        value: "\nEresnet/residual_block/dilated_causal_conv_2/causal_conv/conv1d/bias:0\022Jresnet/residual_block/dilated_causal_conv_2/causal_conv/conv1d/bias/Assign\032Jresnet/residual_block/dilated_causal_conv_2/causal_conv/conv1d/bias/read:02Wresnet/residual_block/dilated_causal_conv_2/causal_conv/conv1d/bias/Initializer/zeros:08\001"
        value: "\n3resnet/residual_block/layer_norm_2/LayerNorm/beta:0\0228resnet/residual_block/layer_norm_2/LayerNorm/beta/Assign\0328resnet/residual_block/layer_norm_2/LayerNorm/beta/read:02Eresnet/residual_block/layer_norm_2/LayerNorm/beta/Initializer/zeros:08\001"
        value: "\n4resnet/residual_block/layer_norm_2/LayerNorm/gamma:0\0229resnet/residual_block/layer_norm_2/LayerNorm/gamma/Assign\0329resnet/residual_block/layer_norm_2/LayerNorm/gamma/read:02Eresnet/residual_block/layer_norm_2/LayerNorm/gamma/Initializer/ones:08\001"
        value: "\n%resnet/residual_block/conv1d/kernel:0\022*resnet/residual_block/conv1d/kernel/Assign\032*resnet/residual_block/conv1d/kernel/read:02@resnet/residual_block/conv1d/kernel/Initializer/random_uniform:08\001"
        value: "\n#resnet/residual_block/conv1d/bias:0\022(resnet/residual_block/conv1d/bias/Assign\032(resnet/residual_block/conv1d/bias/read:025resnet/residual_block/conv1d/bias/Initializer/zeros:08\001"
        value: "\n\025fully_connected_1/w:0\022\032fully_connected_1/w/Assign\032\032fully_connected_1/w/read:020fully_connected_1/w/Initializer/random_uniform:08\001"
        value: "\n\025fully_connected_1/b:0\022\032fully_connected_1/b/Assign\032\032fully_connected_1/b/read:02\'fully_connected_1/b/Initializer/Const:08\001"
        value: "\n\025fully_connected_2/w:0\022\032fully_connected_2/w/Assign\032\032fully_connected_2/w/read:020fully_connected_2/w/Initializer/random_uniform:08\001"
        value: "\n\025fully_connected_2/b:0\022\032fully_connected_2/b/Assign\032\032fully_connected_2/b/read:02\'fully_connected_2/b/Initializer/Const:08\001"
      }
    }
  }
  collection_def {
    key: "variables"
    value {
      bytes_list {
        value: "\n\rglobal_step:0\022\022global_step/Assign\032\022global_step/read:02\037global_step/Initializer/zeros:0"
        value: "\n\033embedding_scope/embedding:0\022 embedding_scope/embedding/Assign\032 embedding_scope/embedding/read:026embedding_scope/embedding/Initializer/random_uniform:08\001"
        value: "\n\017conv1d/kernel:0\022\024conv1d/kernel/Assign\032\024conv1d/kernel/read:02*conv1d/kernel/Initializer/random_uniform:08\001"
        value: "\n\rconv1d/bias:0\022\022conv1d/bias/Assign\032\022conv1d/bias/read:02\037conv1d/bias/Initializer/zeros:08\001"
        value: "\nGresnet/residual_block/dilated_causal_conv_1/causal_conv/conv1d/kernel:0\022Lresnet/residual_block/dilated_causal_conv_1/causal_conv/conv1d/kernel/Assign\032Lresnet/residual_block/dilated_causal_conv_1/causal_conv/conv1d/kernel/read:02bresnet/residual_block/dilated_causal_conv_1/causal_conv/conv1d/kernel/Initializer/random_uniform:08\001"
        value: "\nEresnet/residual_block/dilated_causal_conv_1/causal_conv/conv1d/bias:0\022Jresnet/residual_block/dilated_causal_conv_1/causal_conv/conv1d/bias/Assign\032Jresnet/residual_block/dilated_causal_conv_1/causal_conv/conv1d/bias/read:02Wresnet/residual_block/dilated_causal_conv_1/causal_conv/conv1d/bias/Initializer/zeros:08\001"
        value: "\n3resnet/residual_block/layer_norm_1/LayerNorm/beta:0\0228resnet/residual_block/layer_norm_1/LayerNorm/beta/Assign\0328resnet/residual_block/layer_norm_1/LayerNorm/beta/read:02Eresnet/residual_block/layer_norm_1/LayerNorm/beta/Initializer/zeros:08\001"
        value: "\n4resnet/residual_block/layer_norm_1/LayerNorm/gamma:0\0229resnet/residual_block/layer_norm_1/LayerNorm/gamma/Assign\0329resnet/residual_block/layer_norm_1/LayerNorm/gamma/read:02Eresnet/residual_block/layer_norm_1/LayerNorm/gamma/Initializer/ones:08\001"
        value: "\nGresnet/residual_block/dilated_causal_conv_2/causal_conv/conv1d/kernel:0\022Lresnet/residual_block/dilated_causal_conv_2/causal_conv/conv1d/kernel/Assign\032Lresnet/residual_block/dilated_causal_conv_2/causal_conv/conv1d/kernel/read:02bresnet/residual_block/dilated_causal_conv_2/causal_conv/conv1d/kernel/Initializer/random_uniform:08\001"
        value: "\nEresnet/residual_block/dilated_causal_conv_2/causal_conv/conv1d/bias:0\022Jresnet/residual_block/dilated_causal_conv_2/causal_conv/conv1d/bias/Assign\032Jresnet/residual_block/dilated_causal_conv_2/causal_conv/conv1d/bias/read:02Wresnet/residual_block/dilated_causal_conv_2/causal_conv/conv1d/bias/Initializer/zeros:08\001"
        value: "\n3resnet/residual_block/layer_norm_2/LayerNorm/beta:0\0228resnet/residual_block/layer_norm_2/LayerNorm/beta/Assign\0328resnet/residual_block/layer_norm_2/LayerNorm/beta/read:02Eresnet/residual_block/layer_norm_2/LayerNorm/beta/Initializer/zeros:08\001"
        value: "\n4resnet/residual_block/layer_norm_2/LayerNorm/gamma:0\0229resnet/residual_block/layer_norm_2/LayerNorm/gamma/Assign\0329resnet/residual_block/layer_norm_2/LayerNorm/gamma/read:02Eresnet/residual_block/layer_norm_2/LayerNorm/gamma/Initializer/ones:08\001"
        value: "\n%resnet/residual_block/conv1d/kernel:0\022*resnet/residual_block/conv1d/kernel/Assign\032*resnet/residual_block/conv1d/kernel/read:02@resnet/residual_block/conv1d/kernel/Initializer/random_uniform:08\001"
        value: "\n#resnet/residual_block/conv1d/bias:0\022(resnet/residual_block/conv1d/bias/Assign\032(resnet/residual_block/conv1d/bias/read:025resnet/residual_block/conv1d/bias/Initializer/zeros:08\001"
        value: "\n\025fully_connected_1/w:0\022\032fully_connected_1/w/Assign\032\032fully_connected_1/w/read:020fully_connected_1/w/Initializer/random_uniform:08\001"
        value: "\n\025fully_connected_1/b:0\022\032fully_connected_1/b/Assign\032\032fully_connected_1/b/read:02\'fully_connected_1/b/Initializer/Const:08\001"
        value: "\n\025fully_connected_2/w:0\022\032fully_connected_2/w/Assign\032\032fully_connected_2/w/read:020fully_connected_2/w/Initializer/random_uniform:08\001"
        value: "\n\025fully_connected_2/b:0\022\032fully_connected_2/b/Assign\032\032fully_connected_2/b/read:02\'fully_connected_2/b/Initializer/Const:08\001"
      }
    }
  }
  signature_def {
    key: "prediction"
    value {
      inputs {
        key: "instances"
        value {
          name: "Placeholder:0"
          dtype: DT_STRING
          tensor_shape {
            dim {
              size: -1
            }
          }
        }
      }
      outputs {
        key: "class"
        value {
          name: "GatherV2:0"
          dtype: DT_STRING
          tensor_shape {
            unknown_rank: true
          }
        }
      }
      outputs {
        key: "probabilities"
        value {
          name: "fully_connected_2/add:0"
          dtype: DT_FLOAT
          tensor_shape {
            dim {
              size: -1
            }
            dim {
              size: 5
            }
          }
        }
      }
      method_name: "tensorflow/serving/predict"
    }
  }
  signature_def {
    key: "serving_default"
    value {
      inputs {
        key: "instances"
        value {
          name: "Placeholder:0"
          dtype: DT_STRING
          tensor_shape {
            dim {
              size: -1
            }
          }
        }
      }
      outputs {
        key: "class"
        value {
          name: "GatherV2:0"
          dtype: DT_STRING
          tensor_shape {
            unknown_rank: true
          }
        }
      }
      outputs {
        key: "probabilities"
        value {
          name: "fully_connected_2/add:0"
          dtype: DT_FLOAT
          tensor_shape {
            dim {
              size: -1
            }
            dim {
              size: 5
            }
          }
        }
      }
      method_name: "tensorflow/serving/predict"
    }
  }
}
